node {
  name: "global_step/Initializer/zeros"
  op: "Const"
  attr {
    key: "_class"
    value {
      list {
        s: "loc:@global_step"
      }
    }
  }
  attr {
    key: "_output_shapes"
    value {
      list {
        shape {
        }
      }
    }
  }
  attr {
    key: "dtype"
    value {
      type: DT_INT64
    }
  }
  attr {
    key: "value"
    value {
      tensor {
        dtype: DT_INT64
        tensor_shape {
        }
        int64_val: 0
      }
    }
  }
}
node {
  name: "global_step"
  op: "VariableV2"
  attr {
    key: "_class"
    value {
      list {
        s: "loc:@global_step"
      }
    }
  }
  attr {
    key: "_output_shapes"
    value {
      list {
        shape {
        }
      }
    }
  }
  attr {
    key: "container"
    value {
      s: ""
    }
  }
  attr {
    key: "dtype"
    value {
      type: DT_INT64
    }
  }
  attr {
    key: "shape"
    value {
      shape {
      }
    }
  }
  attr {
    key: "shared_name"
    value {
      s: ""
    }
  }
}
node {
  name: "global_step/Assign"
  op: "Assign"
  input: "global_step"
  input: "global_step/Initializer/zeros"
  attr {
    key: "T"
    value {
      type: DT_INT64
    }
  }
  attr {
    key: "_class"
    value {
      list {
        s: "loc:@global_step"
      }
    }
  }
  attr {
    key: "_output_shapes"
    value {
      list {
        shape {
        }
      }
    }
  }
  attr {
    key: "use_locking"
    value {
      b: true
    }
  }
  attr {
    key: "validate_shape"
    value {
      b: true
    }
  }
}
node {
  name: "global_step/read"
  op: "Identity"
  input: "global_step"
  attr {
    key: "T"
    value {
      type: DT_INT64
    }
  }
  attr {
    key: "_class"
    value {
      list {
        s: "loc:@global_step"
      }
    }
  }
  attr {
    key: "_output_shapes"
    value {
      list {
        shape {
        }
      }
    }
  }
}
node {
  name: "Const"
  op: "Const"
  attr {
    key: "_output_shapes"
    value {
      list {
        shape {
          dim {
            size: 1855
          }
        }
      }
    }
  }
  attr {
    key: "dtype"
    value {
      type: DT_FLOAT
    }
  }
  attr {
    key: "value"
    value {
      tensor {
        dtype: DT_FLOAT
        tensor_shape {
          dim {
            size: 1855
          }
        }
        tensor_content: "…"
      }
    }
  }
}
node {
  name: "Const_1"
  op: "Const"
  attr {
    key: "_output_shapes"
    value {
      list {
        shape {
          dim {
            size: 1855
          }
        }
      }
    }
  }
  attr {
    key: "dtype"
    value {
      type: DT_FLOAT
    }
  }
  attr {
    key: "value"
    value {
      tensor {
        dtype: DT_FLOAT
        tensor_shape {
          dim {
            size: 1855
          }
        }
        tensor_content: "…"
      }
    }
  }
}
node {
  name: "Const_2"
  op: "Const"
  attr {
    key: "_output_shapes"
    value {
      list {
        shape {
          dim {
            size: 1855
          }
        }
      }
    }
  }
  attr {
    key: "dtype"
    value {
      type: DT_FLOAT
    }
  }
  attr {
    key: "value"
    value {
      tensor {
        dtype: DT_FLOAT
        tensor_shape {
          dim {
            size: 1855
          }
        }
        tensor_content: "…"
      }
    }
  }
}
node {
  name: "SparseTensor/indices"
  op: "Const"
  attr {
    key: "_output_shapes"
    value {
      list {
        shape {
          dim {
            size: 1855
          }
          dim {
            size: 2
          }
        }
      }
    }
  }
  attr {
    key: "dtype"
    value {
      type: DT_INT64
    }
  }
  attr {
    key: "value"
    value {
      tensor {
        dtype: DT_INT64
        tensor_shape {
          dim {
            size: 1855
          }
          dim {
            size: 2
          }
        }
        tensor_content: "…"
      }
    }
  }
}
node {
  name: "SparseTensor/values"
  op: "Const"
  attr {
    key: "_output_shapes"
    value {
      list {
        shape {
          dim {
            size: 1855
          }
        }
      }
    }
  }
  attr {
    key: "dtype"
    value {
      type: DT_STRING
    }
  }
  attr {
    key: "value"
    value {
      tensor {
        dtype: DT_STRING
        tensor_shape {
          dim {
            size: 1855
          }
        }
        string_val: "95148"
        string_val: "94116"
        string_val: "94947"
        string_val: "94027"
        string_val: "95125"
        string_val: "94122"
        string_val: "94928"
        string_val: "94133"
        string_val: "95476"
        string_val: "94541"
        string_val: "94063"
        string_val: "94403"
        string_val: "94038"
        string_val: "95127"
        string_val: "94005"
        string_val: "94038"
        string_val: "94111"
        string_val: "94112"
        string_val: "94124"
        string_val: "95023"
        string_val: "94941"
        string_val: "94103"
        string_val: "94019"
        string_val: "95128"
        string_val: "94133"
        string_val: "97701"
        string_val: "94103"
        string_val: "95117"
        string_val: "95012"
        string_val: "95037"
        string_val: "95127"
        string_val: "94949"
        string_val: "95030"
        string_val: "94027"
        string_val: "94563"
        string_val: "94541"
        string_val: "95023"
        string_val: "95148"
        string_val: "94022"
        string_val: "94122"
        string_val: "94402"
        string_val: "94070"
        string_val: "94061"
        string_val: "94103"
        string_val: "94115"
        string_val: "95129"
        string_val: "95030"
        string_val: "95023"
        string_val: "94928"
        string_val: "94105"
        string_val: "94109"
        string_val: "94920"
        string_val: "94937"
        string_val: "94121"
        string_val: "94010"
        string_val: "94108"
        string_val: "95476"
        string_val: "94103"
        string_val: "95054"
        string_val: "94115"
        string_val: "94112"
        string_val: "94070"
        string_val: "94027"
        string_val: "94112"
        string_val: "95014"
        string_val: "94933"
        string_val: "94920"
        string_val: "94949"
        string_val: "94108"
        string_val: "95121"
        string_val: "95122"
        string_val: "95128"
        string_val: "95122"
        string_val: "21401"
        string_val: "94111"
        string_val: "94062"
        string_val: "94103"
        string_val: "95014"
        string_val: "94558"
        string_val: "95124"
        string_val: "94105"
        string_val: "94089"
        string_val: "94112"
        string_val: "94124"
        string_val: "94010"
        string_val: "94115"
        string_val: "94115"
        string_val: "94014"
        string_val: "95125"
        string_val: "94089"
        string_val: "94941"
        string_val: "94929"
        string_val: "94062"
        string_val: "95122"
        string_val: "95650"
        string_val: "95128"
        string_val: "95020"
        string_val: "94949"
        string_val: "94705"
        string_val: "95035"
        string_val: "94957"
        string_val: "95008"
        string_val: "95030"
        string_val: "94901"
        string_val: "95138"
        string_val: "97701"
        string_val: "95037"
        string_val: "94563"
        string_val: "94541"
        string_val: "94903"
        string_val: "94904"
        string_val: "94901"
        string_val: "94301"
        string_val: "95023"
        string_val: "94132"
        string_val: "94158"
        string_val: "94124"
        string_val: "94010"
        string_val: "95148"
        string_val: "94133"
        string_val: "94970"
        string_val: "95118"
        string_val: "94115"
        string_val: "94103"
        string_val: "95014"
        string_val: "94134"
        string_val: "95030"
        string_val: "94030"
        string_val: "95023"
        string_val: "94134"
        string_val: "94303"
        string_val: "95118"
        string_val: "94112"
        string_val: "94037"
        string_val: "94066"
        string_val: "94025"
        string_val: "94121"
        string_val: "94403"
        string_val: "95122"
        string_val: "95148"
        string_val: "46123"
        string_val: "94103"
        string_val: "94022"
        string_val: "94947"
        string_val: "94107"
        string_val: "94105"
        string_val: "95123"
        string_val: "94028"
        string_val: "95121"
        string_val: "94703"
        string_val: "95446"
        string_val: "89431"
        string_val: "94115"
        string_val: "95012"
        string_val: "95127"
        string_val: "94945"
        string_val: "95129"
        string_val: "90266"
        string_val: "95126"
        string_val: "95126"
        string_val: "95124"
        string_val: "94928"
        string_val: "94038"
        string_val: "94116"
        string_val: "94014"
        string_val: "94949"
        string_val: "94401"
        string_val: "94063"
        string_val: "94939"
        string_val: "94946"
        string_val: "94010"
        string_val: "94110"
        string_val: "94541"
        string_val: "94014"
        string_val: "94109"
        string_val: "94940"
        string_val: "95118"
        string_val: "95037"
        string_val: "94109"
        string_val: "94061"
        string_val: "95128"
        string_val: "94061"
        string_val: "95120"
        string_val: "21401"
        string_val: "95476"
        string_val: "94112"
        string_val: "95030"
        string_val: "94002"
        string_val: "95123"
        string_val: "94941"
        string_val: "94103"
        string_val: "94924"
        string_val: "94957"
        string_val: "94930"
        string_val: "94110"
        string_val: "95128"
        string_val: "94002"
        string_val: "95020"
        string_val: "95014"
        string_val: "94123"
        string_val: "94107"
        string_val: "95127"
        string_val: "94304"
        string_val: "95008"
        string_val: "95126"
        string_val: "94103"
        string_val: "94121"
        string_val: "94541"
        string_val: "95008"
        string_val: "95123"
        string_val: "94089"
        string_val: "94025"
        string_val: "94132"
        string_val: "21401"
        string_val: "94123"
        string_val: "94116"
        string_val: "94070"
        string_val: "94005"
        string_val: "95023"
        string_val: "94541"
        string_val: "94304"
        string_val: "90266"
        string_val: "94103"
        string_val: "95123"
        string_val: "95125"
        string_val: "94015"
        string_val: "94027"
        string_val: "95023"
        string_val: "89431"
        string_val: "94133"
        string_val: "94928"
        string_val: "94121"
        string_val: "95122"
        string_val: "94066"
        string_val: "94952"
        string_val: "95148"
        string_val: "94027"
        string_val: "94947"
        string_val: "95127"
        string_val: "94946"
        string_val: "95127"
        string_val: "94010"
        string_val: "21401"
        string_val: "95020"
        string_val: "94541"
        string_val: "94044"
        string_val: "94063"
        string_val: "94014"
        string_val: "94402"
        string_val: "94107"
        string_val: "95030"
        string_val: "94080"
        string_val: "94103"
        string_val: "94403"
        string_val: "94404"
        string_val: "94118"
        string_val: "95125"
        string_val: "94920"
        string_val: "94563"
        string_val: "94030"
        string_val: "94105"
        string_val: "94403"
        string_val: "94133"
        string_val: "95037"
        string_val: "95124"
        string_val: "94949"
        string_val: "94541"
        string_val: "94947"
        string_val: "94703"
        string_val: "95148"
        string_val: "94103"
        string_val: "94109"
        string_val: "94061"
        string_val: "94109"
        string_val: "95014"
        string_val: "94122"
        string_val: "95128"
        string_val: "94132"
        string_val: "95020"
        string_val: "94134"
        string_val: "95129"
        string_val: "95125"
        string_val: "95476"
        string_val: "94115"
        string_val: "94558"
        string_val: "94027"
        string_val: "94930"
        string_val: "94133"
        string_val: "94063"
        string_val: "94037"
        string_val: "94103"
        string_val: "94040"
        string_val: "94558"
        string_val: "94947"
        string_val: "95118"
        string_val: "97701"
        string_val: "95126"
        string_val: "95032"
        string_val: "95014"
        string_val: "95124"
        string_val: "94133"
        string_val: "95020"
        string_val: "95125"
        string_val: "94563"
        string_val: "95123"
        string_val: "94904"
        string_val: "94403"
        string_val: "89431"
        string_val: "94107"
        string_val: "94925"
        string_val: "94303"
        string_val: "94103"
        string_val: "94131"
        string_val: "94941"
        string_val: "94066"
        string_val: "95014"
        string_val: "95650"
        string_val: "94061"
        string_val: "94904"
        string_val: "94904"
        string_val: "95127"
        string_val: "95037"
        string_val: "94105"
        string_val: "94109"
        string_val: "94121"
        string_val: "94105"
        string_val: "94947"
        string_val: "94022"
        string_val: "95476"
        string_val: "94109"
        string_val: "94563"
        string_val: "95126"
        string_val: "90266"
        string_val: "94040"
        string_val: "94027"
        string_val: "94558"
        string_val: "94903"
        string_val: "94947"
        string_val: "95120"
        string_val: "94063"
        string_val: "95124"
        string_val: "94030"
        string_val: "21401"
        string_val: "94070"
        string_val: "95650"
        string_val: "95030"
        string_val: "97701"
        string_val: "21401"
        string_val: "94960"
        string_val: "95129"
        string_val: "94929"
        string_val: "94103"
        string_val: "95032"
        string_val: "95139"
        string_val: "94037"
        string_val: "94960"
        string_val: "94301"
        string_val: "94103"
        string_val: "95037"
        string_val: "94124"
        string_val: "95650"
        string_val: "94027"
        string_val: "94022"
        string_val: "94123"
        string_val: "94124"
        string_val: "94115"
        string_val: "94108"
        string_val: "94541"
        string_val: "95122"
        string_val: "94928"
        string_val: "94928"
        string_val: "94112"
        string_val: "94957"
        string_val: "21401"
        string_val: "94062"
        string_val: "21401"
        string_val: "94553"
        string_val: "94920"
        string_val: "94134"
        string_val: "89431"
        string_val: "95118"
        string_val: "46123"
        string_val: "94028"
        string_val: "95014"
        string_val: "94116"
        string_val: "94933"
        string_val: "94070"
        string_val: "94123"
        string_val: "94010"
        string_val: "94109"
        string_val: "94133"
        string_val: "94107"
        string_val: "94553"
        string_val: "94060"
        string_val: "94925"
        string_val: "94123"
        string_val: "94014"
        string_val: "94115"
        string_val: "94116"
        string_val: "95035"
        string_val: "95650"
        string_val: "95127"
        string_val: "95012"
        string_val: "94402"
        string_val: "94949"
        string_val: "94121"
        string_val: "95120"
        string_val: "94020"
        string_val: "95125"
        string_val: "94105"
        string_val: "94949"
        string_val: "95123"
        string_val: "97701"
        string_val: "94403"
        string_val: "94901"
        string_val: "94127"
        string_val: "94947"
        string_val: "94015"
        string_val: "94110"
        string_val: "94108"
        string_val: "94404"
        string_val: "94941"
        string_val: "95032"
        string_val: "94108"
        string_val: "95127"
        string_val: "94062"
        string_val: "94541"
        string_val: "94114"
        string_val: "94110"
        string_val: "94062"
        string_val: "95122"
        string_val: "94112"
        string_val: "94040"
        string_val: "95119"
        string_val: "94102"
        string_val: "94105"
        string_val: "21401"
        string_val: "94928"
        string_val: "21401"
        string_val: "94903"
        string_val: "94920"
        string_val: "90266"
        string_val: "95446"
        string_val: "95124"
        string_val: "94105"
        string_val: "46123"
        string_val: "94123"
        string_val: "95121"
        string_val: "95020"
        string_val: "94105"
        string_val: "95123"
        string_val: "95148"
        string_val: "94945"
        string_val: "94103"
        string_val: "94937"
        string_val: "94043"
        string_val: "95008"
        string_val: "94070"
        string_val: "95650"
        string_val: "94404"
        string_val: "94043"
        string_val: "95127"
        string_val: "94132"
        string_val: "94112"
        string_val: "94402"
        string_val: "94928"
        string_val: "94110"
        string_val: "95012"
        string_val: "94105"
        string_val: "94025"
        string_val: "94947"
        string_val: "94118"
        string_val: "94114"
        string_val: "94025"
        string_val: "94134"
        string_val: "95008"
        string_val: "95012"
        string_val: "94952"
        string_val: "94043"
        string_val: "94920"
        string_val: "94070"
        string_val: "94920"
        string_val: "94062"
        string_val: "94110"
        string_val: "94115"
        string_val: "94062"
        string_val: "94010"
        string_val: "94062"
        string_val: "95125"
        string_val: "95020"
        string_val: "94010"
        string_val: "94134"
        string_val: "94133"
        string_val: "94107"
        string_val: "90266"
        string_val: "94947"
        string_val: "94928"
        string_val: "94066"
        string_val: "94089"
        string_val: "94110"
        string_val: "94131"
        string_val: "95128"
        string_val: "46123"
        string_val: "94553"
        string_val: "94563"
        string_val: "94061"
        string_val: "94103"
        string_val: "94025"
        string_val: "95476"
        string_val: "94131"
        string_val: "94109"
        string_val: "94044"
        string_val: "94070"
        string_val: "94062"
        string_val: "94928"
        string_val: "95120"
        string_val: "95117"
        string_val: "94061"
        string_val: "94002"
        string_val: "94960"
        string_val: "95127"
        string_val: "94928"
        string_val: "94063"
        string_val: "97701"
        string_val: "94941"
        string_val: "94002"
        string_val: "94109"
        string_val: "97701"
        string_val: "94014"
        string_val: "94118"
        string_val: "94010"
        string_val: "94133"
        string_val: "94022"
        string_val: "95008"
        string_val: "94947"
        string_val: "94930"
        string_val: "94945"
        string_val: "95023"
        string_val: "94109"
        string_val: "94928"
        string_val: "94112"
        string_val: "95120"
        string_val: "95124"
        string_val: "94131"
        string_val: "94110"
        string_val: "94941"
        string_val: "94602"
        string_val: "90266"
        string_val: "95129"
        string_val: "94904"
        string_val: "94041"
        string_val: "94404"
        string_val: "94134"
        string_val: "94903"
        string_val: "94089"
        string_val: "95129"
        string_val: "94402"
        string_val: "94015"
        string_val: "94110"
        string_val: "89431"
        string_val: "95128"
        string_val: "94015"
        string_val: "94134"
        string_val: "94553"
        string_val: "95014"
        string_val: "94037"
        string_val: "94602"
        string_val: "94115"
        string_val: "94303"
        string_val: "95032"
        string_val: "95124"
        string_val: "94114"
        string_val: "94022"
        string_val: "95037"
        string_val: "95650"
        string_val: "94027"
        string_val: "94105"
        string_val: "94303"
        string_val: "94903"
        string_val: "94102"
        string_val: "94402"
        string_val: "94133"
        string_val: "97701"
        string_val: "94109"
        string_val: "95037"
        string_val: "94107"
        string_val: "95135"
        string_val: "21401"
        string_val: "95650"
        string_val: "94558"
        string_val: "94102"
        string_val: "94109"
        string_val: "94401"
        string_val: "94123"
        string_val: "94123"
        string_val: "95023"
        string_val: "94403"
        string_val: "95127"
        string_val: "94028"
        string_val: "94134"
        string_val: "95128"
        string_val: "94132"
        string_val: "94401"
        string_val: "94941"
        string_val: "94553"
        string_val: "95023"
        string_val: "94132"
        string_val: "95118"
        string_val: "95650"
        string_val: "94903"
        string_val: "95122"
        string_val: "95117"
        string_val: "94541"
        string_val: "94960"
        string_val: "94044"
        string_val: "95650"
        string_val: "94127"
        string_val: "94103"
        string_val: "46123"
        string_val: "94110"
        string_val: "94015"
        string_val: "94705"
        string_val: "94024"
        string_val: "94041"
        string_val: "95124"
        string_val: "94025"
        string_val: "94122"
        string_val: "94041"
        string_val: "94105"
        string_val: "94063"
        string_val: "94110"
        string_val: "97701"
        string_val: "97701"
        string_val: "94116"
        string_val: "95476"
        string_val: "94112"
        string_val: "94015"
        string_val: "94703"
        string_val: "94920"
        string_val: "95123"
        string_val: "94123"
        string_val: "94960"
        string_val: "95126"
        string_val: "94038"
        string_val: "94019"
        string_val: "94005"
        string_val: "95032"
        string_val: "94903"
        string_val: "94930"
        string_val: "94105"
        string_val: "94109"
        string_val: "94903"
        string_val: "95023"
        string_val: "46123"
        string_val: "94131"
        string_val: "89431"
        string_val: "95032"
        string_val: "94901"
        string_val: "94025"
        string_val: "94952"
        string_val: "94107"
        string_val: "95128"
        string_val: "94010"
        string_val: "95117"
        string_val: "94038"
        string_val: "94705"
        string_val: "94089"
        string_val: "94109"
        string_val: "94541"
        string_val: "95128"
        string_val: "95129"
        string_val: "46123"
        string_val: "94929"
        string_val: "94904"
        string_val: "89431"
        string_val: "95118"
        string_val: "94402"
        string_val: "95023"
        string_val: "95122"
        string_val: "95032"
        string_val: "94109"
        string_val: "95032"
        string_val: "95118"
        string_val: "94105"
        string_val: "95123"
        string_val: "94123"
        string_val: "94553"
        string_val: "95023"
        string_val: "94134"
        string_val: "95020"
        string_val: "95118"
        string_val: "94070"
        string_val: "94901"
        string_val: "95125"
        string_val: "95120"
        string_val: "95117"
        string_val: "94124"
        string_val: "94041"
        string_val: "94563"
        string_val: "94901"
        string_val: "94028"
        string_val: "94114"
        string_val: "94541"
        string_val: "94110"
        string_val: "94112"
        string_val: "94970"
        string_val: "94563"
        string_val: "94022"
        string_val: "95023"
        string_val: "95121"
        string_val: "95148"
        string_val: "94117"
        string_val: "94103"
        string_val: "94089"
        string_val: "94558"
        string_val: "94949"
        string_val: "94015"
        string_val: "94022"
        string_val: "95008"
        string_val: "94114"
        string_val: "94062"
        string_val: "94124"
        string_val: "94941"
        string_val: "94122"
        string_val: "95121"
        string_val: "94107"
        string_val: "94015"
        string_val: "94104"
        string_val: "94131"
        string_val: "94010"
        string_val: "94062"
        string_val: "94403"
        string_val: "95476"
        string_val: "94112"
        string_val: "95037"
        string_val: "94901"
        string_val: "95124"
        string_val: "94563"
        string_val: "94952"
        string_val: "94949"
        string_val: "94019"
        string_val: "89431"
        string_val: "94015"
        string_val: "94020"
        string_val: "94602"
        string_val: "95032"
        string_val: "95020"
        string_val: "94089"
        string_val: "95118"
        string_val: "94062"
        string_val: "94041"
        string_val: "95037"
        string_val: "94703"
        string_val: "97701"
        string_val: "94553"
        string_val: "94066"
        string_val: "94109"
        string_val: "94541"
        string_val: "94002"
        string_val: "95128"
        string_val: "94074"
        string_val: "94960"
        string_val: "94952"
        string_val: "94015"
        string_val: "90266"
        string_val: "94041"
        string_val: "94952"
        string_val: "94947"
        string_val: "94063"
        string_val: "95119"
        string_val: "94303"
        string_val: "94019"
        string_val: "95120"
        string_val: "94947"
        string_val: "94121"
        string_val: "94121"
        string_val: "94124"
        string_val: "94070"
        string_val: "97701"
        string_val: "94553"
        string_val: "94080"
        string_val: "94022"
        string_val: "95134"
        string_val: "94066"
        string_val: "95121"
        string_val: "94112"
        string_val: "94952"
        string_val: "94133"
        string_val: "94025"
        string_val: "94010"
        string_val: "94070"
        string_val: "94030"
        string_val: "94122"
        string_val: "94703"
        string_val: "95148"
        string_val: "95118"
        string_val: "94952"
        string_val: "94952"
        string_val: "94115"
        string_val: "94303"
        string_val: "94044"
        string_val: "94060"
        string_val: "94602"
        string_val: "94110"
        string_val: "94109"
        string_val: "94949"
        string_val: "94901"
        string_val: "94107"
        string_val: "95020"
        string_val: "94901"
        string_val: "95125"
        string_val: "95650"
        string_val: "94929"
        string_val: "94123"
        string_val: "95121"
        string_val: "94563"
        string_val: "95035"
        string_val: "94025"
        string_val: "94109"
        string_val: "94402"
        string_val: "95014"
        string_val: "94301"
        string_val: "46123"
        string_val: "90266"
        string_val: "94947"
        string_val: "97701"
        string_val: "94116"
        string_val: "94010"
        string_val: "94025"
        string_val: "94080"
        string_val: "94040"
        string_val: "95125"
        string_val: "94061"
        string_val: "94402"
        string_val: "95135"
        string_val: "95117"
        string_val: "94558"
        string_val: "94952"
        string_val: "94903"
        string_val: "95476"
        string_val: "95125"
        string_val: "95020"
        string_val: "95121"
        string_val: "94945"
        string_val: "95128"
        string_val: "95122"
        string_val: "95125"
        string_val: "94123"
        string_val: "94114"
        string_val: "94102"
        string_val: "94952"
        string_val: "94107"
        string_val: "94010"
        string_val: "94109"
        string_val: "94103"
        string_val: "94089"
        string_val: "95020"
        string_val: "94065"
        string_val: "94024"
        string_val: "95117"
        string_val: "94041"
        string_val: "94070"
        string_val: "94109"
        string_val: "95126"
        string_val: "94705"
        string_val: "94949"
        string_val: "94080"
        string_val: "94158"
        string_val: "94104"
        string_val: "94118"
        string_val: "94108"
        string_val: "94949"
        string_val: "95032"
        string_val: "95125"
        string_val: "94960"
        string_val: "94401"
        string_val: "94131"
        string_val: "94401"
        string_val: "94108"
        string_val: "94123"
        string_val: "94030"
        string_val: "94947"
        string_val: "95650"
        string_val: "94901"
        string_val: "94061"
        string_val: "94112"
        string_val: "94104"
        string_val: "94114"
        string_val: "94903"
        string_val: "94043"
        string_val: "97701"
        string_val: "94061"
        string_val: "94304"
        string_val: "95014"
        string_val: "94114"
        string_val: "94015"
        string_val: "94110"
        string_val: "94904"
        string_val: "94109"
        string_val: "94002"
        string_val: "94019"
        string_val: "94112"
        string_val: "94109"
        string_val: "95020"
        string_val: "95650"
        string_val: "94109"
        string_val: "94114"
        string_val: "46123"
        string_val: "95126"
        string_val: "94089"
        string_val: "94037"
        string_val: "95148"
        string_val: "94061"
        string_val: "94301"
        string_val: "95446"
        string_val: "95127"
        string_val: "94558"
        string_val: "94901"
        string_val: "94014"
        string_val: "95120"
        string_val: "95035"
        string_val: "95122"
        string_val: "94563"
        string_val: "94403"
        string_val: "94040"
        string_val: "94952"
        string_val: "94401"
        string_val: "95119"
        string_val: "94941"
        string_val: "94901"
        string_val: "94133"
        string_val: "94038"
        string_val: "95037"
        string_val: "95020"
        string_val: "94066"
        string_val: "94015"
        string_val: "94928"
        string_val: "95020"
        string_val: "46123"
        string_val: "94022"
        string_val: "94952"
        string_val: "94103"
        string_val: "94123"
        string_val: "94019"
        string_val: "95127"
        string_val: "94020"
        string_val: "94116"
        string_val: "94111"
        string_val: "94107"
        string_val: "95035"
        string_val: "95035"
        string_val: "90266"
        string_val: "89431"
        string_val: "94952"
        string_val: "94116"
        string_val: "94066"
        string_val: "94952"
        string_val: "94705"
        string_val: "95119"
        string_val: "94014"
        string_val: "94901"
        string_val: "95008"
        string_val: "94063"
        string_val: "94970"
        string_val: "95035"
        string_val: "21401"
        string_val: "94022"
        string_val: "94404"
        string_val: "94062"
        string_val: "21401"
        string_val: "94105"
        string_val: "94941"
        string_val: "95012"
        string_val: "95476"
        string_val: "94110"
        string_val: "95120"
        string_val: "94946"
        string_val: "95123"
        string_val: "94105"
        string_val: "94132"
        string_val: "94040"
        string_val: "95120"
        string_val: "94103"
        string_val: "95023"
        string_val: "95008"
        string_val: "95121"
        string_val: "95035"
        string_val: "94107"
        string_val: "94928"
        string_val: "94123"
        string_val: "94903"
        string_val: "94131"
        string_val: "94010"
        string_val: "94103"
        string_val: "94105"
        string_val: "94063"
        string_val: "94133"
        string_val: "95002"
        string_val: "94952"
        string_val: "94107"
        string_val: "94108"
        string_val: "97701"
        string_val: "94404"
        string_val: "94123"
        string_val: "94108"
        string_val: "94904"
        string_val: "95128"
        string_val: "94903"
        string_val: "94089"
        string_val: "95446"
        string_val: "95126"
        string_val: "94112"
        string_val: "95008"
        string_val: "94037"
        string_val: "94044"
        string_val: "94124"
        string_val: "94063"
        string_val: "95037"
        string_val: "94960"
        string_val: "94022"
        string_val: "95128"
        string_val: "94025"
        string_val: "94558"
        string_val: "94402"
        string_val: "94960"
        string_val: "95008"
        string_val: "94973"
        string_val: "94105"
        string_val: "94122"
        string_val: "95148"
        string_val: "94403"
        string_val: "89431"
        string_val: "95123"
        string_val: "94037"
        string_val: "95123"
        string_val: "94107"
        string_val: "94107"
        string_val: "94952"
        string_val: "94019"
        string_val: "95123"
        string_val: "94133"
        string_val: "94115"
        string_val: "94703"
        string_val: "94089"
        string_val: "94024"
        string_val: "94103"
        string_val: "95020"
        string_val: "94103"
        string_val: "94945"
        string_val: "94102"
        string_val: "95020"
        string_val: "90266"
        string_val: "94038"
        string_val: "95124"
        string_val: "94105"
        string_val: "94109"
        string_val: "94103"
        string_val: "94402"
        string_val: "95122"
        string_val: "94134"
        string_val: "94015"
        string_val: "95128"
        string_val: "94110"
        string_val: "94070"
        string_val: "95030"
        string_val: "94019"
        string_val: "94019"
        string_val: "94904"
        string_val: "94952"
        string_val: "94065"
        string_val: "94116"
        string_val: "95037"
        string_val: "94112"
        string_val: "95650"
        string_val: "94019"
        string_val: "94131"
        string_val: "95124"
        string_val: "94941"
        string_val: "94114"
        string_val: "95148"
        string_val: "94558"
        string_val: "94301"
        string_val: "94107"
        string_val: "94019"
        string_val: "90266"
        string_val: "94115"
        string_val: "94941"
        string_val: "95119"
        string_val: "94960"
        string_val: "94089"
        string_val: "94038"
        string_val: "21401"
        string_val: "94114"
        string_val: "95446"
        string_val: "46123"
        string_val: "97701"
        string_val: "95008"
        string_val: "94061"
        string_val: "94089"
        string_val: "94105"
        string_val: "94028"
        string_val: "94109"
        string_val: "94563"
        string_val: "94541"
        string_val: "94947"
        string_val: "94066"
        string_val: "46123"
        string_val: "94563"
        string_val: "94901"
        string_val: "94019"
        string_val: "94015"
        string_val: "94089"
        string_val: "95032"
        string_val: "94563"
        string_val: "94602"
        string_val: "95126"
        string_val: "94553"
        string_val: "95023"
        string_val: "95148"
        string_val: "94404"
        string_val: "94105"
        string_val: "95129"
        string_val: "94121"
        string_val: "94127"
        string_val: "95123"
        string_val: "94303"
        string_val: "94107"
        string_val: "95032"
        string_val: "94115"
        string_val: "94089"
        string_val: "94903"
        string_val: "94904"
        string_val: "94971"
        string_val: "94941"
        string_val: "94109"
        string_val: "94109"
        string_val: "95032"
        string_val: "94043"
        string_val: "94133"
        string_val: "90266"
        string_val: "94105"
        string_val: "94109"
        string_val: "95128"
        string_val: "21401"
        string_val: "94920"
        string_val: "95128"
        string_val: "94037"
        string_val: "94134"
        string_val: "95476"
        string_val: "95148"
        string_val: "94102"
        string_val: "94114"
        string_val: "94066"
        string_val: "94118"
        string_val: "94558"
        string_val: "95122"
        string_val: "94105"
        string_val: "94703"
        string_val: "95125"
        string_val: "94118"
        string_val: "94947"
        string_val: "94941"
        string_val: "95125"
        string_val: "95032"
        string_val: "94928"
        string_val: "94014"
        string_val: "46123"
        string_val: "94920"
        string_val: "94080"
        string_val: "95020"
        string_val: "94040"
        string_val: "94602"
        string_val: "94019"
        string_val: "94960"
        string_val: "94970"
        string_val: "94043"
        string_val: "95120"
        string_val: "97701"
        string_val: "95476"
        string_val: "94044"
        string_val: "94401"
        string_val: "94019"
        string_val: "95128"
        string_val: "94107"
        string_val: "95121"
        string_val: "46123"
        string_val: "94024"
        string_val: "95014"
        string_val: "94105"
        string_val: "94941"
        string_val: "94105"
        string_val: "95127"
        string_val: "95030"
        string_val: "94062"
        string_val: "94108"
        string_val: "94920"
        string_val: "95020"
        string_val: "94945"
        string_val: "94563"
        string_val: "94061"
        string_val: "94103"
        string_val: "94110"
        string_val: "94920"
        string_val: "94105"
        string_val: "94122"
        string_val: "21401"
        string_val: "94303"
        string_val: "95127"
        string_val: "95650"
        string_val: "94960"
        string_val: "94404"
        string_val: "94303"
        string_val: "94110"
        string_val: "94010"
        string_val: "95008"
        string_val: "94103"
        string_val: "94134"
        string_val: "95035"
        string_val: "95032"
        string_val: "94303"
        string_val: "90266"
        string_val: "90266"
        string_val: "95020"
        string_val: "94133"
        string_val: "95125"
        string_val: "46123"
        string_val: "94928"
        string_val: "95030"
        string_val: "94930"
        string_val: "89431"
        string_val: "94070"
        string_val: "46123"
        string_val: "94116"
        string_val: "94063"
        string_val: "94563"
        string_val: "95650"
        string_val: "95118"
        string_val: "94401"
        string_val: "94080"
        string_val: "95121"
        string_val: "94010"
        string_val: "94019"
        string_val: "95123"
        string_val: "94952"
        string_val: "94939"
        string_val: "95124"
        string_val: "95128"
        string_val: "94010"
        string_val: "94404"
        string_val: "94110"
        string_val: "94061"
        string_val: "94117"
        string_val: "97701"
        string_val: "94945"
        string_val: "94928"
        string_val: "94945"
        string_val: "95125"
        string_val: "94030"
        string_val: "95023"
        string_val: "94404"
        string_val: "94024"
        string_val: "94065"
        string_val: "94402"
        string_val: "95128"
        string_val: "94022"
        string_val: "94945"
        string_val: "94949"
        string_val: "94123"
        string_val: "94089"
        string_val: "95124"
        string_val: "94019"
        string_val: "95476"
        string_val: "94133"
        string_val: "94134"
        string_val: "94104"
        string_val: "95127"
        string_val: "94025"
        string_val: "94038"
        string_val: "94103"
        string_val: "94960"
        string_val: "94105"
        string_val: "95446"
        string_val: "94108"
        string_val: "95124"
        string_val: "94133"
        string_val: "95012"
        string_val: "94541"
        string_val: "94703"
        string_val: "94103"
        string_val: "94930"
        string_val: "95123"
        string_val: "94108"
        string_val: "94027"
        string_val: "94558"
        string_val: "95124"
        string_val: "94401"
        string_val: "95008"
        string_val: "94044"
        string_val: "94924"
        string_val: "94105"
        string_val: "94404"
        string_val: "94015"
        string_val: "94104"
        string_val: "94558"
        string_val: "94122"
        string_val: "94903"
        string_val: "95120"
        string_val: "94105"
        string_val: "94121"
        string_val: "94903"
        string_val: "95020"
        string_val: "95030"
        string_val: "94133"
        string_val: "94104"
        string_val: "94703"
        string_val: "94930"
        string_val: "94952"
        string_val: "46123"
        string_val: "94115"
        string_val: "97701"
        string_val: "95032"
        string_val: "95124"
        string_val: "89431"
        string_val: "94043"
        string_val: "94118"
        string_val: "95126"
        string_val: "94116"
        string_val: "94043"
        string_val: "95037"
        string_val: "95122"
        string_val: "95476"
        string_val: "95148"
        string_val: "95650"
        string_val: "94947"
        string_val: "94920"
        string_val: "94131"
        string_val: "95119"
        string_val: "94105"
        string_val: "94920"
        string_val: "95023"
        string_val: "90266"
        string_val: "94070"
        string_val: "94080"
        string_val: "94949"
        string_val: "94563"
        string_val: "94107"
        string_val: "97701"
        string_val: "94127"
        string_val: "94904"
        string_val: "94105"
        string_val: "94103"
        string_val: "94933"
        string_val: "95123"
        string_val: "94043"
        string_val: "94112"
        string_val: "94558"
        string_val: "94019"
        string_val: "90266"
        string_val: "94014"
        string_val: "94070"
        string_val: "95023"
        string_val: "94124"
        string_val: "94061"
        string_val: "94015"
        string_val: "94066"
        string_val: "94901"
        string_val: "94105"
        string_val: "95650"
        string_val: "94110"
        string_val: "94402"
        string_val: "94089"
        string_val: "94107"
        string_val: "97701"
        string_val: "94558"
        string_val: "95118"
        string_val: "94960"
        string_val: "94404"
        string_val: "94061"
        string_val: "94122"
        string_val: "94904"
        string_val: "94903"
        string_val: "94563"
        string_val: "94124"
        string_val: "90266"
        string_val: "94118"
        string_val: "95122"
        string_val: "94132"
        string_val: "94941"
        string_val: "94920"
        string_val: "94945"
        string_val: "94041"
        string_val: "94956"
        string_val: "94121"
        string_val: "94403"
        string_val: "95037"
        string_val: "94002"
        string_val: "94110"
        string_val: "94080"
        string_val: "94901"
        string_val: "94952"
        string_val: "94904"
        string_val: "95119"
        string_val: "94028"
        string_val: "94065"
        string_val: "95135"
        string_val: "94062"
        string_val: "95037"
        string_val: "94303"
        string_val: "94115"
        string_val: "95121"
        string_val: "94947"
        string_val: "94133"
        string_val: "94105"
        string_val: "94941"
        string_val: "94901"
        string_val: "94080"
        string_val: "94110"
        string_val: "95650"
        string_val: "94062"
        string_val: "94020"
        string_val: "94949"
        string_val: "90266"
        string_val: "95123"
        string_val: "94133"
        string_val: "94960"
        string_val: "95032"
        string_val: "95124"
        string_val: "94563"
        string_val: "94080"
        string_val: "94123"
        string_val: "94116"
        string_val: "95127"
        string_val: "90266"
        string_val: "95126"
        string_val: "94043"
        string_val: "21401"
        string_val: "94062"
        string_val: "94404"
        string_val: "94108"
        string_val: "94134"
        string_val: "94404"
        string_val: "94553"
        string_val: "95476"
        string_val: "94062"
        string_val: "94010"
        string_val: "94107"
        string_val: "94089"
        string_val: "95014"
        string_val: "94060"
        string_val: "94061"
        string_val: "94061"
        string_val: "94114"
        string_val: "94901"
        string_val: "94109"
        string_val: "89431"
        string_val: "94403"
        string_val: "94065"
        string_val: "46123"
        string_val: "95650"
        string_val: "94904"
        string_val: "89431"
        string_val: "95124"
        string_val: "94904"
        string_val: "94602"
        string_val: "94105"
        string_val: "95120"
        string_val: "94037"
        string_val: "95118"
        string_val: "94920"
        string_val: "94010"
        string_val: "95128"
        string_val: "94105"
        string_val: "94115"
        string_val: "94403"
        string_val: "94080"
        string_val: "94063"
        string_val: "94553"
        string_val: "95128"
        string_val: "94945"
        string_val: "95012"
        string_val: "94558"
        string_val: "94558"
        string_val: "94133"
        string_val: "95126"
        string_val: "94103"
        string_val: "94133"
        string_val: "94118"
        string_val: "95122"
        string_val: "94107"
        string_val: "95120"
        string_val: "95125"
        string_val: "95123"
        string_val: "94019"
        string_val: "94015"
        string_val: "21401"
        string_val: "94928"
        string_val: "95008"
        string_val: "94945"
        string_val: "94043"
        string_val: "94121"
        string_val: "94109"
        string_val: "94044"
        string_val: "94553"
        string_val: "94015"
        string_val: "94124"
        string_val: "94103"
        string_val: "89431"
        string_val: "94131"
        string_val: "95120"
        string_val: "94103"
        string_val: "94107"
        string_val: "94037"
        string_val: "95127"
        string_val: "94030"
        string_val: "94127"
        string_val: "94952"
        string_val: "94563"
        string_val: "94010"
        string_val: "94019"
        string_val: "94114"
        string_val: "94301"
        string_val: "95650"
        string_val: "94404"
        string_val: "94121"
        string_val: "95120"
        string_val: "94105"
        string_val: "94102"
        string_val: "21401"
        string_val: "95030"
        string_val: "94928"
        string_val: "94705"
        string_val: "95120"
        string_val: "94065"
        string_val: "97701"
        string_val: "94089"
        string_val: "94131"
        string_val: "94402"
        string_val: "94044"
        string_val: "94112"
        string_val: "94080"
        string_val: "95125"
        string_val: "94025"
        string_val: "95030"
        string_val: "94115"
        string_val: "95650"
        string_val: "94028"
        string_val: "94941"
        string_val: "94062"
        string_val: "95126"
        string_val: "94941"
        string_val: "95476"
        string_val: "89431"
        string_val: "94945"
        string_val: "94030"
        string_val: "95008"
        string_val: "94401"
        string_val: "95124"
        string_val: "95118"
        string_val: "95476"
        string_val: "94123"
        string_val: "95126"
        string_val: "95121"
        string_val: "94920"
        string_val: "94553"
        string_val: "94904"
        string_val: "94105"
        string_val: "94109"
        string_val: "94044"
        string_val: "95037"
        string_val: "94025"
        string_val: "94080"
        string_val: "95035"
        string_val: "94025"
        string_val: "95121"
        string_val: "94903"
        string_val: "94043"
        string_val: "94952"
        string_val: "94061"
        string_val: "94303"
        string_val: "94111"
        string_val: "94404"
        string_val: "94109"
        string_val: "94563"
        string_val: "94124"
        string_val: "94014"
        string_val: "94920"
        string_val: "94553"
        string_val: "95126"
        string_val: "95037"
        string_val: "46123"
        string_val: "94110"
        string_val: "95476"
        string_val: "95122"
        string_val: "46123"
        string_val: "95032"
        string_val: "94131"
        string_val: "94061"
        string_val: "95128"
        string_val: "95117"
        string_val: "94080"
        string_val: "94401"
        string_val: "94403"
        string_val: "95008"
        string_val: "94558"
        string_val: "46123"
        string_val: "94602"
        string_val: "94110"
        string_val: "94960"
        string_val: "94122"
        string_val: "95124"
        string_val: "95446"
        string_val: "95120"
        string_val: "94015"
        string_val: "94107"
        string_val: "90266"
        string_val: "94131"
        string_val: "94920"
        string_val: "89431"
        string_val: "94928"
        string_val: "94019"
        string_val: "21401"
        string_val: "95476"
        string_val: "94970"
        string_val: "94920"
        string_val: "94133"
        string_val: "94025"
        string_val: "94110"
        string_val: "94027"
        string_val: "95030"
        string_val: "90266"
        string_val: "94114"
        string_val: "94115"
        string_val: "94703"
        string_val: "95119"
        string_val: "94124"
        string_val: "94107"
        string_val: "94901"
        string_val: "95020"
        string_val: "94010"
        string_val: "94002"
        string_val: "95123"
        string_val: "95476"
        string_val: "95139"
        string_val: "94066"
        string_val: "94553"
        string_val: "95127"
        string_val: "94025"
        string_val: "94924"
        string_val: "94904"
        string_val: "94602"
        string_val: "94118"
        string_val: "94116"
        string_val: "94903"
        string_val: "94403"
        string_val: "94014"
        string_val: "94301"
        string_val: "95122"
        string_val: "94107"
        string_val: "95148"
        string_val: "90266"
        string_val: "95054"
        string_val: "94960"
        string_val: "94947"
        string_val: "95020"
        string_val: "94903"
        string_val: "94901"
        string_val: "94303"
        string_val: "94070"
        string_val: "94403"
        string_val: "95120"
        string_val: "94945"
        string_val: "94038"
        string_val: "94062"
        string_val: "95127"
        string_val: "94030"
        string_val: "95125"
        string_val: "95126"
        string_val: "95123"
        string_val: "94903"
        string_val: "94541"
        string_val: "94025"
        string_val: "95123"
        string_val: "94019"
        string_val: "94303"
        string_val: "94062"
        string_val: "95012"
        string_val: "94109"
        string_val: "95032"
        string_val: "95030"
        string_val: "94024"
        string_val: "94066"
        string_val: "94903"
        string_val: "89431"
        string_val: "95125"
        string_val: "89431"
        string_val: "94109"
        string_val: "94104"
        string_val: "94122"
        string_val: "95030"
        string_val: "94937"
        string_val: "95023"
        string_val: "94904"
        string_val: "94121"
        string_val: "95125"
        string_val: "21401"
        string_val: "94109"
        string_val: "94010"
        string_val: "94043"
        string_val: "94558"
        string_val: "94920"
        string_val: "94022"
        string_val: "46123"
        string_val: "95148"
        string_val: "94553"
        string_val: "94089"
        string_val: "95035"
        string_val: "94103"
        string_val: "95476"
        string_val: "95037"
        string_val: "95476"
        string_val: "94105"
        string_val: "94002"
        string_val: "94002"
        string_val: "94303"
        string_val: "95035"
        string_val: "94553"
        string_val: "94109"
        string_val: "94541"
        string_val: "94945"
        string_val: "94112"
        string_val: "21401"
        string_val: "94132"
        string_val: "94541"
        string_val: "94947"
        string_val: "94062"
        string_val: "94110"
        string_val: "94303"
        string_val: "95032"
        string_val: "94541"
        string_val: "94901"
        string_val: "94112"
        string_val: "95121"
        string_val: "94089"
        string_val: "94558"
        string_val: "94122"
        string_val: "94043"
        string_val: "94038"
        string_val: "94114"
        string_val: "94041"
        string_val: "94108"
        string_val: "94901"
        string_val: "94121"
        string_val: "94109"
        string_val: "94041"
        string_val: "95123"
        string_val: "94108"
        string_val: "94115"
        string_val: "94403"
        string_val: "95120"
        string_val: "94065"
        string_val: "94941"
        string_val: "95118"
        string_val: "94158"
        string_val: "94114"
        string_val: "95023"
        string_val: "89431"
        string_val: "94920"
        string_val: "94063"
        string_val: "94558"
        string_val: "95014"
        string_val: "94920"
        string_val: "94019"
        string_val: "94553"
        string_val: "94044"
        string_val: "95008"
        string_val: "95120"
        string_val: "95121"
        string_val: "94015"
        string_val: "94124"
        string_val: "95446"
        string_val: "95122"
        string_val: "95118"
        string_val: "94602"
        string_val: "94303"
        string_val: "94949"
        string_val: "94027"
        string_val: "94903"
        string_val: "94949"
        string_val: "94558"
        string_val: "95008"
        string_val: "94930"
        string_val: "95020"
        string_val: "94941"
        string_val: "95032"
        string_val: "94025"
        string_val: "94103"
        string_val: "95123"
        string_val: "94105"
        string_val: "95119"
        string_val: "94109"
        string_val: "94928"
        string_val: "94107"
        string_val: "94107"
        string_val: "95008"
        string_val: "95127"
        string_val: "94025"
        string_val: "94553"
        string_val: "94110"
        string_val: "94122"
        string_val: "94947"
        string_val: "95014"
        string_val: "95008"
        string_val: "94558"
        string_val: "94061"
        string_val: "94121"
        string_val: "94028"
        string_val: "94541"
        string_val: "94102"
        string_val: "94303"
        string_val: "94114"
        string_val: "94947"
        string_val: "95126"
        string_val: "94553"
        string_val: "95030"
        string_val: "94553"
        string_val: "95127"
        string_val: "95117"
        string_val: "94303"
        string_val: "95030"
        string_val: "94110"
        string_val: "94403"
        string_val: "94402"
        string_val: "94109"
        string_val: "95121"
        string_val: "95476"
        string_val: "95121"
        string_val: "94044"
        string_val: "94303"
        string_val: "94404"
        string_val: "94089"
        string_val: "94945"
        string_val: "94019"
        string_val: "97701"
        string_val: "21401"
        string_val: "94945"
        string_val: "94089"
        string_val: "94015"
        string_val: "94070"
        string_val: "94025"
        string_val: "95008"
        string_val: "94105"
        string_val: "94112"
        string_val: "94109"
        string_val: "95121"
        string_val: "94563"
      }
    }
  }
}
node {
  name: "SparseTensor/dense_shape"
  op: "Const"
  attr {
    key: "_output_shapes"
    value {
      list {
        shape {
          dim {
            size: 2
          }
        }
      }
    }
  }
  attr {
    key: "dtype"
    value {
      type: DT_INT64
    }
  }
  attr {
    key: "value"
    value {
      tensor {
        dtype: DT_INT64
        tensor_shape {
          dim {
            size: 2
          }
        }
        tensor_content: "?\007\000\000\000\000\000\000\001\000\000\000\000\000\000\000"
      }
    }
  }
}
node {
  name: "SparseTensor_1/indices"
  op: "Const"
  attr {
    key: "_output_shapes"
    value {
      list {
        shape {
          dim {
            size: 1855
          }
          dim {
            size: 2
          }
        }
      }
    }
  }
  attr {
    key: "dtype"
    value {
      type: DT_INT64
    }
  }
  attr {
    key: "value"
    value {
      tensor {
        dtype: DT_INT64
        tensor_shape {
          dim {
            size: 1855
          }
          dim {
            size: 2
          }
        }
        tensor_content: "…"
      }
    }
  }
}
node {
  name: "SparseTensor_1/values"
  op: "Const"
  attr {
    key: "_output_shapes"
    value {
      list {
        shape {
          dim {
            size: 1855
          }
        }
      }
    }
  }
  attr {
    key: "dtype"
    value {
      type: DT_STRING
    }
  }
  attr {
    key: "value"
    value {
      tensor {
        dtype: DT_STRING
        tensor_shape {
          dim {
            size: 1855
          }
        }
        string_val: "Single Family"
        string_val: "Multi Family"
        string_val: "Single Family"
        string_val: "Single Family"
        string_val: "Single Family"
        string_val: "Single Family"
        string_val: "Single Family"
        string_val: "Condo"
        string_val: "Single Family"
        string_val: "Single Family"
        string_val: "Single Family"
        string_val: "Single Family"
        string_val: "Single Family"
        string_val: "Single Family"
        string_val: "Single Family"
        string_val: "Single Family"
        string_val: "Condo"
        string_val: "Single Family"
        string_val: "Multi Family"
        string_val: "Single Family"
        string_val: "Condo"
        string_val: "Multi Family"
        string_val: "Single Family"
        string_val: "Single Family"
        string_val: "Multi Family"
        string_val: "Single Family"
        string_val: "Condo"
        string_val: "Single Family"
        string_val: "Multi Family"
        string_val: "Single Family"
        string_val: "Single Family"
        string_val: "Single Family"
        string_val: "Single Family"
        string_val: "Single Family"
        string_val: "Single Family"
        string_val: "Single Family"
        string_val: "Single Family"
        string_val: "Single Family"
        string_val: "Single Family"
        string_val: "Multi Family"
        string_val: "Condo"
        string_val: "Single Family"
        string_val: "Condo"
        string_val: "Condo"
        string_val: "Multi Family"
        string_val: "Single Family"
        string_val: "Single Family"
        string_val: "Single Family"
        string_val: "Single Family"
        string_val: "Condo"
        string_val: "Single Family"
        string_val: "Single Family"
        string_val: "Single Family"
        string_val: "Condo"
        string_val: "Single Family"
        string_val: "Condo"
        string_val: "Single Family"
        string_val: "Condo"
        string_val: "Townhouse"
        string_val: "Condo"
        string_val: "Single Family"
        string_val: "Single Family"
        string_val: "Single Family"
        string_val: "Multi Family"
        string_val: "Single Family"
        string_val: "Single Family"
        string_val: "Single Family"
        string_val: "Single Family"
        string_val: "Condo"
        string_val: "Single Family"
        string_val: "Single Family"
        string_val: "Single Family"
        string_val: "Single Family"
        string_val: "Single Family"
        string_val: "Condo"
        string_val: "Single Family"
        string_val: "Condo"
        string_val: "Single Family"
        string_val: "Single Family"
        string_val: "Condo"
        string_val: "Condo"
        string_val: "Mobile / Manufactured"
        string_val: "Single Family"
        string_val: "Single Family"
        string_val: "Single Family"
        string_val: "Condo"
        string_val: "Cooperative"
        string_val: "Condo"
        string_val: "Single Family"
        string_val: "Mobile / Manufactured"
        string_val: "Single Family"
        string_val: "Single Family"
        string_val: "Single Family"
        string_val: "Single Family"
        string_val: "Single Family"
        string_val: "Single Family"
        string_val: "Single Family"
        string_val: "Condo"
        string_val: "Single Family"
        string_val: "Single Family"
        string_val: "Single Family"
        string_val: "Multi Family"
        string_val: "Single Family"
        string_val: "Single Family"
        string_val: "Mobile / Manufactured"
        string_val: "Single Family"
        string_val: "Single Family"
        string_val: "Single Family"
        string_val: "Condo"
        string_val: "Single Family"
        string_val: "Single Family"
        string_val: "Single Family"
        string_val: "Single Family"
        string_val: "Single Family"
        string_val: "Condo"
        string_val: "Condo"
        string_val: "Single Family"
        string_val: "Single Family"
        string_val: "Single Family"
        string_val: "Condo"
        string_val: "Single Family"
        string_val: "Single Family"
        string_val: "Condo"
        string_val: "Condo"
        string_val: "Condo"
        string_val: "Condo"
        string_val: "Single Family"
        string_val: "Single Family"
        string_val: "Single Family"
        string_val: "Condo"
        string_val: "Single Family"
        string_val: "Single Family"
        string_val: "Multi Family"
        string_val: "Single Family"
        string_val: "Single Family"
        string_val: "Single Family"
        string_val: "Condo"
        string_val: "Single Family"
        string_val: "Single Family"
        string_val: "Single Family"
        string_val: "Single Family"
        string_val: "Condo"
        string_val: "Single Family"
        string_val: "Single Family"
        string_val: "Condo"
        string_val: "Condo"
        string_val: "Townhouse"
        string_val: "Single Family"
        string_val: "Single Family"
        string_val: "Single Family"
        string_val: "Single Family"
        string_val: "Single Family"
        string_val: "Condo"
        string_val: "Single Family"
        string_val: "Single Family"
        string_val: "Single Family"
        string_val: "Single Family"
        string_val: "Single Family"
        string_val: "Single Family"
        string_val: "Single Family"
        string_val: "Single Family"
        string_val: "Condo"
        string_val: "Single Family"
        string_val: "Single Family"
        string_val: "Single Family"
        string_val: "Single Family"
        string_val: "Condo"
        string_val: "Multi Family"
        string_val: "Single Family"
        string_val: "Single Family"
        string_val: "Single Family"
        string_val: "Condo"
        string_val: "Single Family"
        string_val: "Single Family"
        string_val: "Condo"
        string_val: "Single Family"
        string_val: "Single Family"
        string_val: "Single Family"
        string_val: "Condo"
        string_val: "Single Family"
        string_val: "Single Family"
        string_val: "Single Family"
        string_val: "Single Family"
        string_val: "Single Family"
        string_val: "Single Family"
        string_val: "Condo"
        string_val: "Single Family"
        string_val: "Condo"
        string_val: "Single Family"
        string_val: "Single Family"
        string_val: "Condo"
        string_val: "Single Family"
        string_val: "Single Family"
        string_val: "Single Family"
        string_val: "Multi Family"
        string_val: "Single Family"
        string_val: "Single Family"
        string_val: "Single Family"
        string_val: "Single Family"
        string_val: "Single Family"
        string_val: "Condo"
        string_val: "Single Family"
        string_val: "Single Family"
        string_val: "Condo"
        string_val: "Single Family"
        string_val: "Condo"
        string_val: "Multi Family"
        string_val: "Single Family"
        string_val: "Single Family"
        string_val: "Townhouse"
        string_val: "Mobile / Manufactured"
        string_val: "Multi Family"
        string_val: "Single Family"
        string_val: "Single Family"
        string_val: "Condo"
        string_val: "Condo"
        string_val: "Multi Family"
        string_val: "Single Family"
        string_val: "Single Family"
        string_val: "Single Family"
        string_val: "Single Family"
        string_val: "Single Family"
        string_val: "Condo"
        string_val: "Single Family"
        string_val: "Single Family"
        string_val: "Single Family"
        string_val: "Single Family"
        string_val: "Single Family"
        string_val: "Single Family"
        string_val: "Condo"
        string_val: "Single Family"
        string_val: "Multi Family"
        string_val: "Single Family"
        string_val: "Single Family"
        string_val: "Single Family"
        string_val: "Single Family"
        string_val: "Single Family"
        string_val: "Single Family"
        string_val: "Single Family"
        string_val: "Single Family"
        string_val: "Single Family"
        string_val: "Single Family"
        string_val: "Townhouse"
        string_val: "Single Family"
        string_val: "Single Family"
        string_val: "Single Family"
        string_val: "Multi Family"
        string_val: "Multi Family"
        string_val: "Condo"
        string_val: "Condo"
        string_val: "Single Family"
        string_val: "Single Family"
        string_val: "Condo"
        string_val: "Single Family"
        string_val: "Condo"
        string_val: "Multi Family"
        string_val: "Single Family"
        string_val: "Single Family"
        string_val: "Single Family"
        string_val: "Condo"
        string_val: "Condo"
        string_val: "Single Family"
        string_val: "Cooperative"
        string_val: "Single Family"
        string_val: "Single Family"
        string_val: "Single Family"
        string_val: "Condo"
        string_val: "Single Family"
        string_val: "Multi Family"
        string_val: "Single Family"
        string_val: "Condo"
        string_val: "Condo"
        string_val: "Single Family"
        string_val: "Multi Family"
        string_val: "Single Family"
        string_val: "Condo"
        string_val: "Single Family"
        string_val: "Condo"
        string_val: "Mobile / Manufactured"
        string_val: "Condo"
        string_val: "Single Family"
        string_val: "Single Family"
        string_val: "Single Family"
        string_val: "Condo"
        string_val: "Single Family"
        string_val: "Single Family"
        string_val: "Single Family"
        string_val: "Condo"
        string_val: "Single Family"
        string_val: "Single Family"
        string_val: "Condo"
        string_val: "Condo"
        string_val: "Mobile / Manufactured"
        string_val: "Single Family"
        string_val: "Multi Family"
        string_val: "Condo"
        string_val: "Townhouse"
        string_val: "Single Family"
        string_val: "Single Family"
        string_val: "Single Family"
        string_val: "Multi Family"
        string_val: "Single Family"
        string_val: "Miscellaneous"
        string_val: "Single Family"
        string_val: "Single Family"
        string_val: "Single Family"
        string_val: "Condo"
        string_val: "Single Family"
        string_val: "Condo"
        string_val: "Condo"
        string_val: "Single Family"
        string_val: "Condo"
        string_val: "Single Family"
        string_val: "Condo"
        string_val: "Single Family"
        string_val: "Single Family"
        string_val: "Single Family"
        string_val: "Multi Family"
        string_val: "Single Family"
        string_val: "Condo"
        string_val: "Single Family"
        string_val: "Single Family"
        string_val: "Condo"
        string_val: "Condo"
        string_val: "Condo"
        string_val: "Condo"
        string_val: "Single Family"
        string_val: "Single Family"
        string_val: "Condo"
        string_val: "Condo"
        string_val: "Single Family"
        string_val: "Condo"
        string_val: "Townhouse"
        string_val: "Single Family"
        string_val: "Single Family"
        string_val: "Single Family"
        string_val: "Single Family"
        string_val: "Single Family"
        string_val: "Single Family"
        string_val: "Multi Family"
        string_val: "Single Family"
        string_val: "Single Family"
        string_val: "Single Family"
        string_val: "Single Family"
        string_val: "Single Family"
        string_val: "Single Family"
        string_val: "Single Family"
        string_val: "Single Family"
        string_val: "Single Family"
        string_val: "Single Family"
        string_val: "Single Family"
        string_val: "Condo"
        string_val: "Single Family"
        string_val: "Single Family"
        string_val: "Single Family"
        string_val: "Single Family"
        string_val: "Multi Family"
        string_val: "Multi Family"
        string_val: "Single Family"
        string_val: "Condo"
        string_val: "Single Family"
        string_val: "Single Family"
        string_val: "Single Family"
        string_val: "Condo"
        string_val: "Single Family"
        string_val: "Single Family"
        string_val: "Condo"
        string_val: "Single Family"
        string_val: "Single Family"
        string_val: "Condo"
        string_val: "Single Family"
        string_val: "Multi Family"
        string_val: "Single Family"
        string_val: "Single Family"
        string_val: "Single Family"
        string_val: "Condo"
        string_val: "Single Family"
        string_val: "Single Family"
        string_val: "Single Family"
        string_val: "Single Family"
        string_val: "Single Family"
        string_val: "Single Family"
        string_val: "Single Family"
        string_val: "Condo"
        string_val: "Single Family"
        string_val: "Single Family"
        string_val: "Single Family"
        string_val: "Multi Family"
        string_val: "Single Family"
        string_val: "Condo"
        string_val: "Condo"
        string_val: "Condo"
        string_val: "Single Family"
        string_val: "Single Family"
        string_val: "Single Family"
        string_val: "Condo"
        string_val: "Single Family"
        string_val: "Single Family"
        string_val: "Single Family"
        string_val: "Single Family"
        string_val: "Single Family"
        string_val: "Single Family"
        string_val: "Single Family"
        string_val: "Single Family"
        string_val: "Mobile / Manufactured"
        string_val: "Multi Family"
        string_val: "Single Family"
        string_val: "Single Family"
        string_val: "Condo"
        string_val: "Condo"
        string_val: "Condo"
        string_val: "Townhouse"
        string_val: "Single Family"
        string_val: "Single Family"
        string_val: "Single Family"
        string_val: "Single Family"
        string_val: "Condo"
        string_val: "Single Family"
        string_val: "Single Family"
        string_val: "Condo"
        string_val: "Single Family"
        string_val: "Single Family"
        string_val: "Townhouse"
        string_val: "Condo"
        string_val: "Single Family"
        string_val: "Single Family"
        string_val: "Townhouse"
        string_val: "Multi Family"
        string_val: "Apartment"
        string_val: "Single Family"
        string_val: "Single Family"
        string_val: "Condo"
        string_val: "Condo"
        string_val: "Single Family"
        string_val: "Multi Family"
        string_val: "Condo"
        string_val: "Single Family"
        string_val: "Single Family"
        string_val: "Single Family"
        string_val: "Mobile / Manufactured"
        string_val: "Condo"
        string_val: "Single Family"
        string_val: "Single Family"
        string_val: "Single Family"
        string_val: "Condo"
        string_val: "Single Family"
        string_val: "Condo"
        string_val: "Single Family"
        string_val: "Single Family"
        string_val: "Condo"
        string_val: "Single Family"
        string_val: "Single Family"
        string_val: "Condo"
        string_val: "Condo"
        string_val: "Single Family"
        string_val: "Single Family"
        string_val: "Mobile / Manufactured"
        string_val: "Single Family"
        string_val: "Single Family"
        string_val: "Townhouse"
        string_val: "Single Family"
        string_val: "Single Family"
        string_val: "Single Family"
        string_val: "Single Family"
        string_val: "Single Family"
        string_val: "Single Family"
        string_val: "Condo"
        string_val: "Single Family"
        string_val: "Condo"
        string_val: "Single Family"
        string_val: "Single Family"
        string_val: "Multi Family"
        string_val: "Multi Family"
        string_val: "Single Family"
        string_val: "Single Family"
        string_val: "Single Family"
        string_val: "Single Family"
        string_val: "Single Family"
        string_val: "Single Family"
        string_val: "Single Family"
        string_val: "Condo"
        string_val: "Single Family"
        string_val: "Single Family"
        string_val: "Multi Family"
        string_val: "Single Family"
        string_val: "Single Family"
        string_val: "Single Family"
        string_val: "Single Family"
        string_val: "Single Family"
        string_val: "Single Family"
        string_val: "Single Family"
        string_val: "Single Family"
        string_val: "Condo"
        string_val: "Condo"
        string_val: "Single Family"
        string_val: "Single Family"
        string_val: "Single Family"
        string_val: "Condo"
        string_val: "Mobile / Manufactured"
        string_val: "Single Family"
        string_val: "Condo"
        string_val: "Single Family"
        string_val: "Single Family"
        string_val: "Single Family"
        string_val: "Single Family"
        string_val: "Single Family"
        string_val: "Condo"
        string_val: "Single Family"
        string_val: "Single Family"
        string_val: "Condo"
        string_val: "Condo"
        string_val: "Single Family"
        string_val: "Single Family"
        string_val: "Single Family"
        string_val: "Mobile / Manufactured"
        string_val: "Townhouse"
        string_val: "Condo"
        string_val: "Condo"
        string_val: "Single Family"
        string_val: "Single Family"
        string_val: "Single Family"
        string_val: "Single Family"
        string_val: "Multi Family"
        string_val: "Single Family"
        string_val: "Single Family"
        string_val: "Condo"
        string_val: "Condo"
        string_val: "Single Family"
        string_val: "Single Family"
        string_val: "Multi Family"
        string_val: "Single Family"
        string_val: "Multi Family"
        string_val: "Single Family"
        string_val: "Single Family"
        string_val: "Single Family"
        string_val: "Single Family"
        string_val: "Single Family"
        string_val: "Single Family"
        string_val: "Condo"
        string_val: "Single Family"
        string_val: "Single Family"
        string_val: "Single Family"
        string_val: "Single Family"
        string_val: "Multi Family"
        string_val: "Single Family"
        string_val: "Single Family"
        string_val: "Multi Family"
        string_val: "Single Family"
        string_val: "Single Family"
        string_val: "Single Family"
        string_val: "Multi Family"
        string_val: "Condo"
        string_val: "Condo"
        string_val: "Single Family"
        string_val: "Single Family"
        string_val: "Condo"
        string_val: "Single Family"
        string_val: "Condo"
        string_val: "Single Family"
        string_val: "Single Family"
        string_val: "Single Family"
        string_val: "Single Family"
        string_val: "Multi Family"
        string_val: "Single Family"
        string_val: "Single Family"
        string_val: "Single Family"
        string_val: "Single Family"
        string_val: "Single Family"
        string_val: "Single Family"
        string_val: "Single Family"
        string_val: "Single Family"
        string_val: "Single Family"
        string_val: "Single Family"
        string_val: "Single Family"
        string_val: "Single Family"
        string_val: "Single Family"
        string_val: "Condo"
        string_val: "Multi Family"
        string_val: "Single Family"
        string_val: "Condo"
        string_val: "Single Family"
        string_val: "Multi Family"
        string_val: "Single Family"
        string_val: "Condo"
        string_val: "Single Family"
        string_val: "Condo"
        string_val: "Condo"
        string_val: "Single Family"
        string_val: "Single Family"
        string_val: "Single Family"
        string_val: "Condo"
        string_val: "Condo"
        string_val: "Condo"
        string_val: "Multi Family"
        string_val: "Single Family"
        string_val: "Single Family"
        string_val: "Single Family"
        string_val: "Single Family"
        string_val: "Single Family"
        string_val: "Single Family"
        string_val: "Single Family"
        string_val: "Single Family"
        string_val: "Condo"
        string_val: "Single Family"
        string_val: "Single Family"
        string_val: "Single Family"
        string_val: "Condo"
        string_val: "Single Family"
        string_val: "Single Family"
        string_val: "Single Family"
        string_val: "Single Family"
        string_val: "Condo"
        string_val: "Single Family"
        string_val: "Single Family"
        string_val: "Condo"
        string_val: "Single Family"
        string_val: "Multi Family"
        string_val: "Multi Family"
        string_val: "Single Family"
        string_val: "Condo"
        string_val: "Single Family"
        string_val: "Single Family"
        string_val: "Single Family"
        string_val: "Multi Family"
        string_val: "Single Family"
        string_val: "Condo"
        string_val: "Multi Family"
        string_val: "Mobile / Manufactured"
        string_val: "Condo"
        string_val: "Mobile / Manufactured"
        string_val: "Condo"
        string_val: "Single Family"
        string_val: "Single Family"
        string_val: "Single Family"
        string_val: "Mobile / Manufactured"
        string_val: "Single Family"
        string_val: "Single Family"
        string_val: "Condo"
        string_val: "Single Family"
        string_val: "Single Family"
        string_val: "Condo"
        string_val: "Single Family"
        string_val: "Single Family"
        string_val: "Mobile / Manufactured"
        string_val: "Single Family"
        string_val: "Single Family"
        string_val: "Condo"
        string_val: "Single Family"
        string_val: "Condo"
        string_val: "Condo"
        string_val: "Condo"
        string_val: "Single Family"
        string_val: "Single Family"
        string_val: "Single Family"
        string_val: "Single Family"
        string_val: "Single Family"
        string_val: "Single Family"
        string_val: "Single Family"
        string_val: "Single Family"
        string_val: "Condo"
        string_val: "Condo"
        string_val: "Single Family"
        string_val: "Single Family"
        string_val: "Condo"
        string_val: "Single Family"
        string_val: "Single Family"
        string_val: "Mobile / Manufactured"
        string_val: "Condo"
        string_val: "Single Family"
        string_val: "Single Family"
        string_val: "Single Family"
        string_val: "Single Family"
        string_val: "Single Family"
        string_val: "Single Family"
        string_val: "Single Family"
        string_val: "Condo"
        string_val: "Single Family"
        string_val: "Single Family"
        string_val: "Single Family"
        string_val: "Single Family"
        string_val: "Condo"
        string_val: "Single Family"
        string_val: "Single Family"
        string_val: "Condo"
        string_val: "Condo"
        string_val: "Multi Family"
        string_val: "Single Family"
        string_val: "Single Family"
        string_val: "Single Family"
        string_val: "Single Family"
        string_val: "Single Family"
        string_val: "Single Family"
        string_val: "Single Family"
        string_val: "Single Family"
        string_val: "Single Family"
        string_val: "Multi Family"
        string_val: "Condo"
        string_val: "Single Family"
        string_val: "Single Family"
        string_val: "Single Family"
        string_val: "Single Family"
        string_val: "Multi Family"
        string_val: "Townhouse"
        string_val: "Condo"
        string_val: "Single Family"
        string_val: "Single Family"
        string_val: "Single Family"
        string_val: "Condo"
        string_val: "Single Family"
        string_val: "Single Family"
        string_val: "Single Family"
        string_val: "Condo"
        string_val: "Condo"
        string_val: "Mobile / Manufactured"
        string_val: "Single Family"
        string_val: "Single Family"
        string_val: "Single Family"
        string_val: "Single Family"
        string_val: "Single Family"
        string_val: "Single Family"
        string_val: "Single Family"
        string_val: "Townhouse"
        string_val: "Single Family"
        string_val: "Multi Family"
        string_val: "Single Family"
        string_val: "Condo"
        string_val: "Single Family"
        string_val: "Condo"
        string_val: "Single Family"
        string_val: "Single Family"
        string_val: "Single Family"
        string_val: "Single Family"
        string_val: "Condo"
        string_val: "Single Family"
        string_val: "Single Family"
        string_val: "Single Family"
        string_val: "Multi Family"
        string_val: "Single Family"
        string_val: "Multi Family"
        string_val: "Single Family"
        string_val: "Single Family"
        string_val: "Single Family"
        string_val: "Single Family"
        string_val: "Single Family"
        string_val: "Single Family"
        string_val: "Condo"
        string_val: "Single Family"
        string_val: "Mobile / Manufactured"
        string_val: "Condo"
        string_val: "Single Family"
        string_val: "Multi Family"
        string_val: "Single Family"
        string_val: "Multi Family"
        string_val: "Single Family"
        string_val: "Single Family"
        string_val: "Single Family"
        string_val: "Condo"
        string_val: "Townhouse"
        string_val: "Single Family"
        string_val: "Mobile / Manufactured"
        string_val: "Single Family"
        string_val: "Single Family"
        string_val: "Single Family"
        string_val: "Single Family"
        string_val: "Single Family"
        string_val: "Mobile / Manufactured"
        string_val: "Single Family"
        string_val: "Single Family"
        string_val: "Single Family"
        string_val: "Single Family"
        string_val: "Condo"
        string_val: "Single Family"
        string_val: "Single Family"
        string_val: "Single Family"
        string_val: "Multi Family"
        string_val: "Single Family"
        string_val: "Condo"
        string_val: "Single Family"
        string_val: "Single Family"
        string_val: "Single Family"
        string_val: "Multi Family"
        string_val: "Single Family"
        string_val: "Mobile / Manufactured"
        string_val: "Single Family"
        string_val: "Single Family"
        string_val: "Single Family"
        string_val: "Mobile / Manufactured"
        string_val: "Multi Family"
        string_val: "Condo"
        string_val: "Condo"
        string_val: "Single Family"
        string_val: "Single Family"
        string_val: "Single Family"
        string_val: "Condo"
        string_val: "Single Family"
        string_val: "Single Family"
        string_val: "Single Family"
        string_val: "Single Family"
        string_val: "Condo"
        string_val: "Single Family"
        string_val: "Single Family"
        string_val: "Single Family"
        string_val: "Multi Family"
        string_val: "Multi Family"
        string_val: "Condo"
        string_val: "Condo"
        string_val: "Single Family"
        string_val: "Condo"
        string_val: "Single Family"
        string_val: "Condo"
        string_val: "Single Family"
        string_val: "Single Family"
        string_val: "Single Family"
        string_val: "Condo"
        string_val: "Single Family"
        string_val: "Single Family"
        string_val: "Condo"
        string_val: "Single Family"
        string_val: "Cooperative"
        string_val: "Single Family"
        string_val: "Single Family"
        string_val: "Single Family"
        string_val: "Single Family"
        string_val: "Multi Family"
        string_val: "Single Family"
        string_val: "Single Family"
        string_val: "Single Family"
        string_val: "Single Family"
        string_val: "Single Family"
        string_val: "Single Family"
        string_val: "Condo"
        string_val: "Single Family"
        string_val: "Single Family"
        string_val: "Single Family"
        string_val: "Single Family"
        string_val: "Multi Family"
        string_val: "Single Family"
        string_val: "Single Family"
        string_val: "Mobile / Manufactured"
        string_val: "Single Family"
        string_val: "Mobile / Manufactured"
        string_val: "Single Family"
        string_val: "Single Family"
        string_val: "Single Family"
        string_val: "Mobile / Manufactured"
        string_val: "Single Family"
        string_val: "Single Family"
        string_val: "Single Family"
        string_val: "Single Family"
        string_val: "Condo"
        string_val: "Single Family"
        string_val: "Condo"
        string_val: "Single Family"
        string_val: "Condo"
        string_val: "Condo"
        string_val: "Mobile / Manufactured"
        string_val: "Single Family"
        string_val: "Single Family"
        string_val: "Single Family"
        string_val: "Single Family"
        string_val: "Multi Family"
        string_val: "Condo"
        string_val: "Condo"
        string_val: "Single Family"
        string_val: "Single Family"
        string_val: "Single Family"
        string_val: "Single Family"
        string_val: "Condo"
        string_val: "Condo"
        string_val: "Single Family"
        string_val: "Condo"
        string_val: "Single Family"
        string_val: "Multi Family"
        string_val: "Single Family"
        string_val: "Single Family"
        string_val: "Condo"
        string_val: "Single Family"
        string_val: "Single Family"
        string_val: "Condo"
        string_val: "Single Family"
        string_val: "Single Family"
        string_val: "Condo"
        string_val: "Single Family"
        string_val: "Single Family"
        string_val: "Single Family"
        string_val: "Multi Family"
        string_val: "Condo"
        string_val: "Single Family"
        string_val: "Single Family"
        string_val: "Single Family"
        string_val: "Mobile / Manufactured"
        string_val: "Single Family"
        string_val: "Single Family"
        string_val: "Condo"
        string_val: "Multi Family"
        string_val: "Single Family"
        string_val: "Single Family"
        string_val: "Single Family"
        string_val: "Condo"
        string_val: "Condo"
        string_val: "Single Family"
        string_val: "Single Family"
        string_val: "Condo"
        string_val: "Single Family"
        string_val: "Single Family"
        string_val: "Condo"
        string_val: "Condo"
        string_val: "Single Family"
        string_val: "Condo"
        string_val: "Mobile / Manufactured"
        string_val: "Single Family"
        string_val: "Single Family"
        string_val: "Single Family"
        string_val: "Condo"
        string_val: "Single Family"
        string_val: "Single Family"
        string_val: "Single Family"
        string_val: "Single Family"
        string_val: "Single Family"
        string_val: "Single Family"
        string_val: "Townhouse"
        string_val: "Single Family"
        string_val: "Single Family"
        string_val: "Single Family"
        string_val: "Condo"
        string_val: "Single Family"
        string_val: "Condo"
        string_val: "Condo"
        string_val: "Single Family"
        string_val: "Single Family"
        string_val: "Multi Family"
        string_val: "Single Family"
        string_val: "Single Family"
        string_val: "Single Family"
        string_val: "Condo"
        string_val: "Condo"
        string_val: "Condo"
        string_val: "Single Family"
        string_val: "Single Family"
        string_val: "Single Family"
        string_val: "Single Family"
        string_val: "Multi Family"
        string_val: "Single Family"
        string_val: "Single Family"
        string_val: "Single Family"
        string_val: "Single Family"
        string_val: "Single Family"
        string_val: "Condo"
        string_val: "Condo"
        string_val: "Single Family"
        string_val: "Single Family"
        string_val: "Single Family"
        string_val: "Single Family"
        string_val: "Single Family"
        string_val: "Single Family"
        string_val: "Condo"
        string_val: "Single Family"
        string_val: "Single Family"
        string_val: "Single Family"
        string_val: "Single Family"
        string_val: "Single Family"
        string_val: "Townhouse"
        string_val: "Single Family"
        string_val: "Single Family"
        string_val: "Condo"
        string_val: "Single Family"
        string_val: "Single Family"
        string_val: "Condo"
        string_val: "Single Family"
        string_val: "Townhouse"
        string_val: "Condo"
        string_val: "Single Family"
        string_val: "Single Family"
        string_val: "Single Family"
        string_val: "Single Family"
        string_val: "Single Family"
        string_val: "Single Family"
        string_val: "Single Family"
        string_val: "Condo"
        string_val: "Condo"
        string_val: "Mobile / Manufactured"
        string_val: "Single Family"
        string_val: "Condo"
        string_val: "Single Family"
        string_val: "Single Family"
        string_val: "Condo"
        string_val: "Single Family"
        string_val: "Single Family"
        string_val: "Condo"
        string_val: "Condo"
        string_val: "Condo"
        string_val: "Single Family"
        string_val: "Single Family"
        string_val: "Condo"
        string_val: "Condo"
        string_val: "Mobile / Manufactured"
        string_val: "Multi Family"
        string_val: "Mobile / Manufactured"
        string_val: "Single Family"
        string_val: "Condo"
        string_val: "Condo"
        string_val: "Single Family"
        string_val: "Condo"
        string_val: "Condo"
        string_val: "Condo"
        string_val: "Single Family"
        string_val: "Single Family"
        string_val: "Single Family"
        string_val: "Single Family"
        string_val: "Single Family"
        string_val: "Condo"
        string_val: "Single Family"
        string_val: "Townhouse"
        string_val: "Single Family"
        string_val: "Condo"
        string_val: "Single Family"
        string_val: "Single Family"
        string_val: "Single Family"
        string_val: "Single Family"
        string_val: "Single Family"
        string_val: "Single Family"
        string_val: "Condo"
        string_val: "Single Family"
        string_val: "Single Family"
        string_val: "Single Family"
        string_val: "Townhouse"
        string_val: "Single Family"
        string_val: "Condo"
        string_val: "Multi Family"
        string_val: "Single Family"
        string_val: "Condo"
        string_val: "Condo"
        string_val: "Mobile / Manufactured"
        string_val: "Single Family"
        string_val: "Single Family"
        string_val: "Condo"
        string_val: "Condo"
        string_val: "Single Family"
        string_val: "Single Family"
        string_val: "Single Family"
        string_val: "Cooperative"
        string_val: "Condo"
        string_val: "Multi Family"
        string_val: "Single Family"
        string_val: "Single Family"
        string_val: "Condo"
        string_val: "Single Family"
        string_val: "Condo"
        string_val: "Single Family"
        string_val: "Multi Family"
        string_val: "Condo"
        string_val: "Single Family"
        string_val: "Mobile / Manufactured"
        string_val: "Single Family"
        string_val: "Condo"
        string_val: "Single Family"
        string_val: "Condo"
        string_val: "Single Family"
        string_val: "Townhouse"
        string_val: "Single Family"
        string_val: "Condo"
        string_val: "Mobile / Manufactured"
        string_val: "Multi Family"
        string_val: "Single Family"
        string_val: "Single Family"
        string_val: "Single Family"
        string_val: "Condo"
        string_val: "Mobile / Manufactured"
        string_val: "Single Family"
        string_val: "Single Family"
        string_val: "Single Family"
        string_val: "Single Family"
        string_val: "Single Family"
        string_val: "Single Family"
        string_val: "Single Family"
        string_val: "Condo"
        string_val: "Single Family"
        string_val: "Multi Family"
        string_val: "Multi Family"
        string_val: "Single Family"
        string_val: "Single Family"
        string_val: "Single Family"
        string_val: "Condo"
        string_val: "Single Family"
        string_val: "Single Family"
        string_val: "Condo"
        string_val: "Single Family"
        string_val: "Single Family"
        string_val: "Single Family"
        string_val: "Mobile / Manufactured"
        string_val: "Single Family"
        string_val: "Single Family"
        string_val: "Single Family"
        string_val: "Single Family"
        string_val: "Single Family"
        string_val: "Single Family"
        string_val: "Single Family"
        string_val: "Condo"
        string_val: "Mobile / Manufactured"
        string_val: "Condo"
        string_val: "Single Family"
        string_val: "Single Family"
        string_val: "Single Family"
        string_val: "Single Family"
        string_val: "Single Family"
        string_val: "Single Family"
        string_val: "Single Family"
        string_val: "Single Family"
        string_val: "Single Family"
        string_val: "Single Family"
        string_val: "Condo"
        string_val: "Condo"
        string_val: "Single Family"
        string_val: "Single Family"
        string_val: "Multi Family"
        string_val: "Single Family"
        string_val: "Single Family"
        string_val: "Single Family"
        string_val: "Single Family"
        string_val: "Condo"
        string_val: "Condo"
        string_val: "Single Family"
        string_val: "Single Family"
        string_val: "Single Family"
        string_val: "Townhouse"
        string_val: "Condo"
        string_val: "Condo"
        string_val: "Condo"
        string_val: "Multi Family"
        string_val: "Mobile / Manufactured"
        string_val: "Single Family"
        string_val: "Single Family"
        string_val: "Single Family"
        string_val: "Single Family"
        string_val: "Condo"
        string_val: "Condo"
        string_val: "Single Family"
        string_val: "Condo"
        string_val: "Single Family"
        string_val: "Townhouse"
        string_val: "Condo"
        string_val: "Condo"
        string_val: "Single Family"
        string_val: "Single Family"
        string_val: "Single Family"
        string_val: "Condo"
        string_val: "Single Family"
        string_val: "Multi Family"
        string_val: "Single Family"
        string_val: "Single Family"
        string_val: "Condo"
        string_val: "Condo"
        string_val: "Single Family"
        string_val: "Single Family"
        string_val: "Single Family"
        string_val: "Single Family"
        string_val: "Condo"
        string_val: "Single Family"
        string_val: "Single Family"
        string_val: "Single Family"
        string_val: "Single Family"
        string_val: "Multi Family"
        string_val: "Single Family"
        string_val: "Single Family"
        string_val: "Condo"
        string_val: "Single Family"
        string_val: "Single Family"
        string_val: "Single Family"
        string_val: "Single Family"
        string_val: "Single Family"
        string_val: "Single Family"
        string_val: "Single Family"
        string_val: "Single Family"
        string_val: "Single Family"
        string_val: "Condo"
        string_val: "Single Family"
        string_val: "Single Family"
        string_val: "Single Family"
        string_val: "Single Family"
        string_val: "Condo"
        string_val: "Single Family"
        string_val: "Condo"
        string_val: "Single Family"
        string_val: "Condo"
        string_val: "Single Family"
        string_val: "Single Family"
        string_val: "Single Family"
        string_val: "Townhouse"
        string_val: "Condo"
        string_val: "Single Family"
        string_val: "Condo"
        string_val: "Condo"
        string_val: "Single Family"
        string_val: "Single Family"
        string_val: "Condo"
        string_val: "Single Family"
        string_val: "Single Family"
        string_val: "Condo"
        string_val: "Single Family"
        string_val: "Single Family"
        string_val: "Condo"
        string_val: "Condo"
        string_val: "Single Family"
        string_val: "Condo"
        string_val: "Multi Family"
        string_val: "Single Family"
        string_val: "Single Family"
        string_val: "Single Family"
        string_val: "Single Family"
        string_val: "Single Family"
        string_val: "Condo"
        string_val: "Single Family"
        string_val: "Condo"
        string_val: "Single Family"
        string_val: "Single Family"
        string_val: "Condo"
        string_val: "Single Family"
        string_val: "Single Family"
        string_val: "Single Family"
        string_val: "Single Family"
        string_val: "Single Family"
        string_val: "Single Family"
        string_val: "Single Family"
        string_val: "Condo"
        string_val: "Single Family"
        string_val: "Single Family"
        string_val: "Single Family"
        string_val: "Single Family"
        string_val: "Single Family"
        string_val: "Condo"
        string_val: "Single Family"
        string_val: "Single Family"
        string_val: "Single Family"
        string_val: "Single Family"
        string_val: "Single Family"
        string_val: "Single Family"
        string_val: "Condo"
        string_val: "Condo"
        string_val: "Multi Family"
        string_val: "Single Family"
        string_val: "Single Family"
        string_val: "Single Family"
        string_val: "Townhouse"
        string_val: "Single Family"
        string_val: "Single Family"
        string_val: "Single Family"
        string_val: "Condo"
        string_val: "Single Family"
        string_val: "Single Family"
        string_val: "Single Family"
        string_val: "Single Family"
        string_val: "Condo"
        string_val: "Single Family"
        string_val: "Single Family"
        string_val: "Single Family"
        string_val: "Condo"
        string_val: "Single Family"
        string_val: "Condo"
        string_val: "Single Family"
        string_val: "Single Family"
        string_val: "Single Family"
        string_val: "Single Family"
        string_val: "Condo"
        string_val: "Single Family"
        string_val: "Single Family"
        string_val: "Single Family"
        string_val: "Single Family"
        string_val: "Condo"
        string_val: "Mobile / Manufactured"
        string_val: "Single Family"
        string_val: "Single Family"
        string_val: "Single Family"
        string_val: "Multi Family"
        string_val: "Condo"
        string_val: "Condo"
        string_val: "Single Family"
        string_val: "Multi Family"
        string_val: "Single Family"
        string_val: "Condo"
        string_val: "Single Family"
        string_val: "Condo"
        string_val: "Single Family"
        string_val: "Condo"
        string_val: "Single Family"
        string_val: "Cooperative"
        string_val: "Single Family"
        string_val: "Single Family"
        string_val: "Multi Family"
        string_val: "Condo"
        string_val: "Single Family"
        string_val: "Mobile / Manufactured"
        string_val: "Condo"
        string_val: "Single Family"
        string_val: "Single Family"
        string_val: "Single Family"
        string_val: "Townhouse"
        string_val: "Townhouse"
        string_val: "Townhouse"
        string_val: "Single Family"
        string_val: "Condo"
        string_val: "Townhouse"
        string_val: "Single Family"
        string_val: "Condo"
        string_val: "Single Family"
        string_val: "Multi Family"
        string_val: "Mobile / Manufactured"
        string_val: "Townhouse"
        string_val: "Condo"
        string_val: "Single Family"
        string_val: "Multi Family"
        string_val: "Single Family"
        string_val: "Single Family"
        string_val: "Condo"
        string_val: "Condo"
        string_val: "Single Family"
        string_val: "Single Family"
        string_val: "Single Family"
        string_val: "Single Family"
        string_val: "Condo"
        string_val: "Single Family"
        string_val: "Single Family"
        string_val: "Single Family"
        string_val: "Single Family"
        string_val: "Townhouse"
        string_val: "Multi Family"
        string_val: "Condo"
        string_val: "Multi Family"
        string_val: "Single Family"
        string_val: "Single Family"
        string_val: "Single Family"
        string_val: "Single Family"
        string_val: "Single Family"
        string_val: "Single Family"
        string_val: "Single Family"
        string_val: "Single Family"
        string_val: "Single Family"
        string_val: "Single Family"
        string_val: "Condo"
        string_val: "Single Family"
        string_val: "Single Family"
        string_val: "Single Family"
        string_val: "Single Family"
        string_val: "Single Family"
        string_val: "Single Family"
        string_val: "Single Family"
        string_val: "Condo"
        string_val: "Single Family"
        string_val: "Single Family"
        string_val: "Single Family"
        string_val: "Condo"
        string_val: "Condo"
        string_val: "Single Family"
        string_val: "Single Family"
        string_val: "Mobile / Manufactured"
        string_val: "Single Family"
        string_val: "Single Family"
        string_val: "Townhouse"
        string_val: "Townhouse"
        string_val: "Single Family"
        string_val: "Single Family"
        string_val: "Single Family"
        string_val: "Condo"
        string_val: "Single Family"
        string_val: "Single Family"
        string_val: "Single Family"
        string_val: "Single Family"
        string_val: "Condo"
        string_val: "Single Family"
        string_val: "Multi Family"
        string_val: "Single Family"
        string_val: "Mobile / Manufactured"
        string_val: "Condo"
        string_val: "Single Family"
        string_val: "Single Family"
        string_val: "Condo"
        string_val: "Single Family"
        string_val: "Single Family"
        string_val: "Single Family"
        string_val: "Multi Family"
        string_val: "Single Family"
        string_val: "Mobile / Manufactured"
        string_val: "Single Family"
        string_val: "Condo"
        string_val: "Single Family"
        string_val: "Single Family"
        string_val: "Single Family"
        string_val: "Single Family"
        string_val: "Single Family"
        string_val: "Single Family"
        string_val: "Single Family"
        string_val: "Multi Family"
        string_val: "Single Family"
        string_val: "Multi Family"
        string_val: "Single Family"
        string_val: "Single Family"
        string_val: "Condo"
        string_val: "Multi Family"
        string_val: "Single Family"
        string_val: "Single Family"
        string_val: "Single Family"
        string_val: "Single Family"
        string_val: "Single Family"
        string_val: "Single Family"
        string_val: "Single Family"
        string_val: "Townhouse"
        string_val: "Single Family"
        string_val: "Mobile / Manufactured"
        string_val: "Single Family"
        string_val: "Condo"
        string_val: "Single Family"
        string_val: "Single Family"
        string_val: "Condo"
        string_val: "Condo"
        string_val: "Condo"
        string_val: "Condo"
        string_val: "Single Family"
        string_val: "Multi Family"
        string_val: "Single Family"
        string_val: "Single Family"
        string_val: "Single Family"
        string_val: "Single Family"
        string_val: "Condo"
        string_val: "Townhouse"
        string_val: "Multi Family"
        string_val: "Single Family"
        string_val: "Condo"
        string_val: "Single Family"
        string_val: "Single Family"
        string_val: "Mobile / Manufactured"
        string_val: "Condo"
        string_val: "Multi Family"
        string_val: "Single Family"
        string_val: "Single Family"
        string_val: "Single Family"
        string_val: "Condo"
        string_val: "Single Family"
        string_val: "Single Family"
        string_val: "Condo"
        string_val: "Condo"
        string_val: "Single Family"
        string_val: "Condo"
        string_val: "Single Family"
        string_val: "Single Family"
        string_val: "Single Family"
        string_val: "Single Family"
        string_val: "Condo"
        string_val: "Mobile / Manufactured"
        string_val: "Single Family"
        string_val: "Single Family"
        string_val: "Multi Family"
        string_val: "Single Family"
        string_val: "Single Family"
        string_val: "Condo"
        string_val: "Multi Family"
        string_val: "Single Family"
        string_val: "Single Family"
        string_val: "Condo"
        string_val: "Single Family"
        string_val: "Single Family"
        string_val: "Condo"
        string_val: "Mobile / Manufactured"
        string_val: "Single Family"
        string_val: "Single Family"
        string_val: "Single Family"
        string_val: "Condo"
        string_val: "Townhouse"
        string_val: "Single Family"
        string_val: "Single Family"
        string_val: "Single Family"
        string_val: "Single Family"
        string_val: "Condo"
        string_val: "Condo"
        string_val: "Cooperative"
        string_val: "Single Family"
        string_val: "Single Family"
        string_val: "Single Family"
        string_val: "Single Family"
        string_val: "Single Family"
        string_val: "Condo"
        string_val: "Mobile / Manufactured"
        string_val: "Single Family"
        string_val: "Single Family"
        string_val: "Condo"
        string_val: "Single Family"
        string_val: "Condo"
        string_val: "Condo"
        string_val: "Condo"
        string_val: "Condo"
        string_val: "Condo"
        string_val: "Townhouse"
        string_val: "Townhouse"
        string_val: "Single Family"
        string_val: "Single Family"
        string_val: "Condo"
        string_val: "Single Family"
        string_val: "Condo"
        string_val: "Single Family"
        string_val: "Condo"
        string_val: "Single Family"
        string_val: "Single Family"
        string_val: "Condo"
        string_val: "Townhouse"
        string_val: "Condo"
        string_val: "Condo"
        string_val: "Condo"
        string_val: "Condo"
        string_val: "Condo"
        string_val: "Single Family"
        string_val: "Single Family"
        string_val: "Condo"
        string_val: "Condo"
        string_val: "Single Family"
        string_val: "Condo"
        string_val: "Single Family"
        string_val: "Single Family"
        string_val: "Single Family"
        string_val: "Single Family"
        string_val: "Single Family"
        string_val: "Single Family"
        string_val: "Multi Family"
        string_val: "Single Family"
        string_val: "Single Family"
        string_val: "Single Family"
        string_val: "Condo"
        string_val: "Condo"
        string_val: "Condo"
        string_val: "Multi Family"
        string_val: "Single Family"
        string_val: "Single Family"
        string_val: "Single Family"
        string_val: "Single Family"
        string_val: "Single Family"
        string_val: "Townhouse"
        string_val: "Single Family"
        string_val: "Mobile / Manufactured"
        string_val: "Single Family"
        string_val: "Single Family"
        string_val: "Single Family"
        string_val: "Condo"
        string_val: "Condo"
        string_val: "Single Family"
        string_val: "Single Family"
        string_val: "Single Family"
        string_val: "Multi Family"
        string_val: "Single Family"
        string_val: "Single Family"
        string_val: "Single Family"
        string_val: "Single Family"
        string_val: "Single Family"
        string_val: "Single Family"
        string_val: "Single Family"
        string_val: "Single Family"
        string_val: "Condo"
        string_val: "Condo"
        string_val: "Single Family"
        string_val: "Single Family"
        string_val: "Single Family"
        string_val: "Single Family"
        string_val: "Single Family"
        string_val: "Multi Family"
        string_val: "Single Family"
        string_val: "Single Family"
        string_val: "Single Family"
        string_val: "Single Family"
        string_val: "Condo"
        string_val: "Condo"
        string_val: "Condo"
        string_val: "Single Family"
        string_val: "Single Family"
        string_val: "Single Family"
        string_val: "Condo"
        string_val: "Single Family"
        string_val: "Single Family"
        string_val: "Single Family"
        string_val: "Single Family"
        string_val: "Townhouse"
        string_val: "Single Family"
        string_val: "Condo"
        string_val: "Condo"
        string_val: "Condo"
        string_val: "Single Family"
        string_val: "Condo"
        string_val: "Single Family"
        string_val: "Condo"
        string_val: "Single Family"
        string_val: "Single Family"
        string_val: "Single Family"
        string_val: "Multi Family"
        string_val: "Single Family"
        string_val: "Single Family"
        string_val: "Single Family"
        string_val: "Single Family"
        string_val: "Single Family"
        string_val: "Single Family"
        string_val: "Single Family"
        string_val: "Condo"
        string_val: "Single Family"
        string_val: "Condo"
        string_val: "Single Family"
        string_val: "Single Family"
        string_val: "Single Family"
        string_val: "Single Family"
        string_val: "Single Family"
        string_val: "Single Family"
        string_val: "Single Family"
        string_val: "Multi Family"
        string_val: "Single Family"
        string_val: "Single Family"
        string_val: "Single Family"
        string_val: "Single Family"
        string_val: "Single Family"
        string_val: "Single Family"
        string_val: "Condo"
        string_val: "Multi Family"
        string_val: "Single Family"
        string_val: "Multi Family"
        string_val: "Single Family"
        string_val: "Single Family"
        string_val: "Single Family"
        string_val: "Single Family"
        string_val: "Single Family"
        string_val: "Single Family"
        string_val: "Single Family"
        string_val: "Single Family"
        string_val: "Multi Family"
        string_val: "Single Family"
        string_val: "Single Family"
        string_val: "Single Family"
        string_val: "Single Family"
        string_val: "Condo"
        string_val: "Condo"
        string_val: "Cooperative"
        string_val: "Multi Family"
        string_val: "Single Family"
        string_val: "Single Family"
        string_val: "Condo"
        string_val: "Condo"
        string_val: "Single Family"
        string_val: "Single Family"
        string_val: "Townhouse"
        string_val: "Single Family"
        string_val: "Single Family"
        string_val: "Townhouse"
        string_val: "Single Family"
        string_val: "Townhouse"
        string_val: "Single Family"
        string_val: "Townhouse"
        string_val: "Single Family"
        string_val: "Single Family"
        string_val: "Condo"
        string_val: "Multi Family"
        string_val: "Single Family"
        string_val: "Condo"
        string_val: "Condo"
        string_val: "Multi Family"
        string_val: "Condo"
        string_val: "Single Family"
        string_val: "Condo"
        string_val: "Single Family"
        string_val: "Single Family"
        string_val: "Single Family"
        string_val: "Single Family"
        string_val: "Single Family"
        string_val: "Single Family"
        string_val: "Single Family"
        string_val: "Single Family"
        string_val: "Single Family"
        string_val: "Condo"
        string_val: "Condo"
        string_val: "Single Family"
        string_val: "Multi Family"
        string_val: "Single Family"
        string_val: "Single Family"
        string_val: "Single Family"
        string_val: "Condo"
        string_val: "Single Family"
        string_val: "Condo"
        string_val: "Single Family"
        string_val: "Single Family"
        string_val: "Single Family"
        string_val: "Single Family"
        string_val: "Single Family"
        string_val: "Single Family"
        string_val: "Single Family"
        string_val: "Single Family"
        string_val: "Single Family"
        string_val: "Condo"
        string_val: "Townhouse"
        string_val: "Single Family"
        string_val: "Single Family"
        string_val: "Condo"
        string_val: "Single Family"
        string_val: "Single Family"
        string_val: "Single Family"
        string_val: "Single Family"
        string_val: "Condo"
        string_val: "Condo"
        string_val: "Multi Family"
        string_val: "Single Family"
        string_val: "Single Family"
        string_val: "Single Family"
        string_val: "Single Family"
        string_val: "Multi Family"
        string_val: "Single Family"
        string_val: "Single Family"
        string_val: "Condo"
        string_val: "Single Family"
        string_val: "Mobile / Manufactured"
        string_val: "Single Family"
        string_val: "Single Family"
        string_val: "Single Family"
        string_val: "Single Family"
        string_val: "Condo"
        string_val: "Single Family"
        string_val: "Mobile / Manufactured"
        string_val: "Townhouse"
        string_val: "Multi Family"
        string_val: "Single Family"
        string_val: "Single Family"
        string_val: "Single Family"
        string_val: "Condo"
        string_val: "Single Family"
        string_val: "Single Family"
        string_val: "Single Family"
        string_val: "Single Family"
        string_val: "Single Family"
        string_val: "Condo"
        string_val: "Single Family"
        string_val: "Single Family"
        string_val: "Multi Family"
        string_val: "Single Family"
        string_val: "Single Family"
        string_val: "Single Family"
        string_val: "Condo"
        string_val: "Single Family"
        string_val: "Single Family"
        string_val: "Single Family"
        string_val: "Single Family"
        string_val: "Single Family"
        string_val: "Single Family"
        string_val: "Single Family"
        string_val: "Single Family"
        string_val: "Mobile / Manufactured"
        string_val: "Single Family"
        string_val: "Multi Family"
        string_val: "Condo"
        string_val: "Single Family"
        string_val: "Multi Family"
        string_val: "Mobile / Manufactured"
        string_val: "Condo"
        string_val: "Condo"
        string_val: "Single Family"
        string_val: "Condo"
        string_val: "Single Family"
        string_val: "Condo"
        string_val: "Condo"
        string_val: "Multi Family"
        string_val: "Single Family"
        string_val: "Single Family"
        string_val: "Single Family"
        string_val: "Single Family"
        string_val: "Single Family"
        string_val: "Condo"
        string_val: "Multi Family"
        string_val: "Single Family"
        string_val: "Single Family"
        string_val: "Single Family"
        string_val: "Single Family"
        string_val: "Single Family"
        string_val: "Single Family"
        string_val: "Single Family"
        string_val: "Single Family"
        string_val: "Single Family"
        string_val: "Single Family"
        string_val: "Single Family"
        string_val: "Single Family"
        string_val: "Single Family"
        string_val: "Single Family"
        string_val: "Single Family"
        string_val: "Single Family"
        string_val: "Single Family"
        string_val: "Single Family"
        string_val: "Multi Family"
        string_val: "Single Family"
        string_val: "Single Family"
        string_val: "Single Family"
        string_val: "Single Family"
        string_val: "Single Family"
        string_val: "Miscellaneous"
        string_val: "Condo"
        string_val: "Single Family"
        string_val: "Single Family"
        string_val: "Single Family"
        string_val: "Single Family"
        string_val: "Single Family"
        string_val: "Condo"
        string_val: "Single Family"
        string_val: "Condo"
        string_val: "Single Family"
        string_val: "Condo"
        string_val: "Single Family"
        string_val: "Condo"
        string_val: "Condo"
        string_val: "Single Family"
        string_val: "Single Family"
        string_val: "Single Family"
        string_val: "Townhouse"
        string_val: "Multi Family"
        string_val: "Single Family"
        string_val: "Single Family"
        string_val: "Condo"
        string_val: "Single Family"
        string_val: "Single Family"
        string_val: "Condo"
        string_val: "Multi Family"
        string_val: "Single Family"
        string_val: "Single Family"
        string_val: "Condo"
        string_val: "Single Family"
        string_val: "Multi Family"
        string_val: "Single Family"
        string_val: "Single Family"
        string_val: "Single Family"
        string_val: "Single Family"
        string_val: "Townhouse"
        string_val: "Single Family"
        string_val: "Condo"
        string_val: "Single Family"
        string_val: "Single Family"
        string_val: "Condo"
        string_val: "Single Family"
        string_val: "Single Family"
        string_val: "Condo"
        string_val: "Single Family"
        string_val: "Single Family"
        string_val: "Single Family"
        string_val: "Single Family"
        string_val: "Single Family"
        string_val: "Townhouse"
        string_val: "Mobile / Manufactured"
        string_val: "Single Family"
        string_val: "Single Family"
        string_val: "Single Family"
        string_val: "Single Family"
        string_val: "Single Family"
        string_val: "Mobile / Manufactured"
        string_val: "Condo"
        string_val: "Condo"
        string_val: "Single Family"
        string_val: "Townhouse"
        string_val: "Condo"
        string_val: "Single Family"
        string_val: "Condo"
        string_val: "Townhouse"
        string_val: "Single Family"
      }
    }
  }
}
node {
  name: "SparseTensor_1/dense_shape"
  op: "Const"
  attr {
    key: "_output_shapes"
    value {
      list {
        shape {
          dim {
            size: 2
          }
        }
      }
    }
  }
  attr {
    key: "dtype"
    value {
      type: DT_INT64
    }
  }
  attr {
    key: "value"
    value {
      tensor {
        dtype: DT_INT64
        tensor_shape {
          dim {
            size: 2
          }
        }
        tensor_content: "?\007\000\000\000\000\000\000\001\000\000\000\000\000\000\000"
      }
    }
  }
}
node {
  name: "Const_3"
  op: "Const"
  attr {
    key: "_output_shapes"
    value {
      list {
        shape {
          dim {
            size: 1855
          }
        }
      }
    }
  }
  attr {
    key: "dtype"
    value {
      type: DT_FLOAT
    }
  }
  attr {
    key: "value"
    value {
      tensor {
        dtype: DT_FLOAT
        tensor_shape {
          dim {
            size: 1855
          }
        }
        tensor_content: "…"
      }
    }
  }
}
node {
  name: "global_step/IsVariableInitialized"
  op: "IsVariableInitialized"
  input: "global_step"
  attr {
    key: "_class"
    value {
      list {
        s: "loc:@global_step"
      }
    }
  }
  attr {
    key: "_output_shapes"
    value {
      list {
        shape {
        }
      }
    }
  }
  attr {
    key: "dtype"
    value {
      type: DT_INT64
    }
  }
}
node {
  name: "global_step/cond/Switch"
  op: "Switch"
  input: "global_step/IsVariableInitialized"
  input: "global_step/IsVariableInitialized"
  attr {
    key: "T"
    value {
      type: DT_BOOL
    }
  }
  attr {
    key: "_output_shapes"
    value {
      list {
        shape {
        }
        shape {
        }
      }
    }
  }
}
node {
  name: "global_step/cond/switch_t"
  op: "Identity"
  input: "global_step/cond/Switch:1"
  attr {
    key: "T"
    value {
      type: DT_BOOL
    }
  }
  attr {
    key: "_output_shapes"
    value {
      list {
        shape {
        }
      }
    }
  }
}
node {
  name: "global_step/cond/switch_f"
  op: "Identity"
  input: "global_step/cond/Switch"
  attr {
    key: "T"
    value {
      type: DT_BOOL
    }
  }
  attr {
    key: "_output_shapes"
    value {
      list {
        shape {
        }
      }
    }
  }
}
node {
  name: "global_step/cond/pred_id"
  op: "Identity"
  input: "global_step/IsVariableInitialized"
  attr {
    key: "T"
    value {
      type: DT_BOOL
    }
  }
  attr {
    key: "_output_shapes"
    value {
      list {
        shape {
        }
      }
    }
  }
}
node {
  name: "global_step/cond/read"
  op: "Identity"
  input: "global_step/cond/read/Switch:1"
  attr {
    key: "T"
    value {
      type: DT_INT64
    }
  }
  attr {
    key: "_output_shapes"
    value {
      list {
        shape {
        }
      }
    }
  }
}
node {
  name: "global_step/cond/read/Switch"
  op: "RefSwitch"
  input: "global_step"
  input: "global_step/cond/pred_id"
  attr {
    key: "T"
    value {
      type: DT_INT64
    }
  }
  attr {
    key: "_class"
    value {
      list {
        s: "loc:@global_step"
      }
    }
  }
  attr {
    key: "_output_shapes"
    value {
      list {
        shape {
        }
        shape {
        }
      }
    }
  }
}
node {
  name: "global_step/cond/Switch_1"
  op: "Switch"
  input: "global_step/Initializer/zeros"
  input: "global_step/cond/pred_id"
  attr {
    key: "T"
    value {
      type: DT_INT64
    }
  }
  attr {
    key: "_class"
    value {
      list {
        s: "loc:@global_step"
      }
    }
  }
  attr {
    key: "_output_shapes"
    value {
      list {
        shape {
        }
        shape {
        }
      }
    }
  }
}
node {
  name: "global_step/cond/Merge"
  op: "Merge"
  input: "global_step/cond/Switch_1"
  input: "global_step/cond/read"
  attr {
    key: "N"
    value {
      i: 2
    }
  }
  attr {
    key: "T"
    value {
      type: DT_INT64
    }
  }
  attr {
    key: "_output_shapes"
    value {
      list {
        shape {
        }
        shape {
        }
      }
    }
  }
}
node {
  name: "global_step/add/y"
  op: "Const"
  attr {
    key: "_output_shapes"
    value {
      list {
        shape {
        }
      }
    }
  }
  attr {
    key: "dtype"
    value {
      type: DT_INT64
    }
  }
  attr {
    key: "value"
    value {
      tensor {
        dtype: DT_INT64
        tensor_shape {
        }
        int64_val: 0
      }
    }
  }
}
node {
  name: "global_step/add"
  op: "Add"
  input: "global_step/cond/Merge"
  input: "global_step/add/y"
  attr {
    key: "T"
    value {
      type: DT_INT64
    }
  }
  attr {
    key: "_output_shapes"
    value {
      list {
        shape {
        }
      }
    }
  }
}
node {
  name: "linear/linear/bucketize"
  op: "Bucketize"
  input: "Const_2"
  attr {
    key: "T"
    value {
      type: DT_FLOAT
    }
  }
  attr {
    key: "_output_shapes"
    value {
      list {
        shape {
          dim {
            size: 1855
          }
        }
      }
    }
  }
  attr {
    key: "boundaries"
    value {
      list {
        f: 0.0
        f: 200.0
        f: 400.0
        f: 600.0
        f: 800.0
        f: 1000.0
        f: 1200.0
        f: 1400.0
        f: 1600.0
        f: 1800.0
        f: 2000.0
        f: 2200.0
        f: 2400.0
        f: 2600.0
        f: 2800.0
        f: 3000.0
        f: 3200.0
        f: 3400.0
        f: 3600.0
        f: 3800.0
        f: 4000.0
        f: 4200.0
        f: 4400.0
        f: 4600.0
        f: 4800.0
        f: 5000.0
        f: 5200.0
        f: 5400.0
        f: 5600.0
        f: 5800.0
      }
    }
  }
}
node {
  name: "linear/linear/shape"
  op: "Const"
  attr {
    key: "_output_shapes"
    value {
      list {
        shape {
          dim {
            size: 1
          }
        }
      }
    }
  }
  attr {
    key: "dtype"
    value {
      type: DT_INT32
    }
  }
  attr {
    key: "value"
    value {
      tensor {
        dtype: DT_INT32
        tensor_shape {
          dim {
            size: 1
          }
        }
        int_val: 1855
      }
    }
  }
}
node {
  name: "linear/linear/strided_slice/stack"
  op: "Const"
  attr {
    key: "_output_shapes"
    value {
      list {
        shape {
          dim {
            size: 1
          }
        }
      }
    }
  }
  attr {
    key: "dtype"
    value {
      type: DT_INT32
    }
  }
  attr {
    key: "value"
    value {
      tensor {
        dtype: DT_INT32
        tensor_shape {
          dim {
            size: 1
          }
        }
        int_val: 0
      }
    }
  }
}
node {
  name: "linear/linear/strided_slice/stack_1"
  op: "Const"
  attr {
    key: "_output_shapes"
    value {
      list {
        shape {
          dim {
            size: 1
          }
        }
      }
    }
  }
  attr {
    key: "dtype"
    value {
      type: DT_INT32
    }
  }
  attr {
    key: "value"
    value {
      tensor {
        dtype: DT_INT32
        tensor_shape {
          dim {
            size: 1
          }
        }
        int_val: 1
      }
    }
  }
}
node {
  name: "linear/linear/strided_slice/stack_2"
  op: "Const"
  attr {
    key: "_output_shapes"
    value {
      list {
        shape {
          dim {
            size: 1
          }
        }
      }
    }
  }
  attr {
    key: "dtype"
    value {
      type: DT_INT32
    }
  }
  attr {
    key: "value"
    value {
      tensor {
        dtype: DT_INT32
        tensor_shape {
          dim {
            size: 1
          }
        }
        int_val: 1
      }
    }
  }
}
node {
  name: "linear/linear/strided_slice"
  op: "StridedSlice"
  input: "linear/linear/shape"
  input: "linear/linear/strided_slice/stack"
  input: "linear/linear/strided_slice/stack_1"
  input: "linear/linear/strided_slice/stack_2"
  attr {
    key: "Index"
    value {
      type: DT_INT32
    }
  }
  attr {
    key: "T"
    value {
      type: DT_INT32
    }
  }
  attr {
    key: "_output_shapes"
    value {
      list {
        shape {
        }
      }
    }
  }
  attr {
    key: "begin_mask"
    value {
      i: 0
    }
  }
  attr {
    key: "ellipsis_mask"
    value {
      i: 0
    }
  }
  attr {
    key: "end_mask"
    value {
      i: 0
    }
  }
  attr {
    key: "new_axis_mask"
    value {
      i: 0
    }
  }
  attr {
    key: "shrink_axis_mask"
    value {
      i: 1
    }
  }
}
node {
  name: "linear/linear/range/start"
  op: "Const"
  attr {
    key: "_output_shapes"
    value {
      list {
        shape {
        }
      }
    }
  }
  attr {
    key: "dtype"
    value {
      type: DT_INT32
    }
  }
  attr {
    key: "value"
    value {
      tensor {
        dtype: DT_INT32
        tensor_shape {
        }
        int_val: 0
      }
    }
  }
}
node {
  name: "linear/linear/range/delta"
  op: "Const"
  attr {
    key: "_output_shapes"
    value {
      list {
        shape {
        }
      }
    }
  }
  attr {
    key: "dtype"
    value {
      type: DT_INT32
    }
  }
  attr {
    key: "value"
    value {
      tensor {
        dtype: DT_INT32
        tensor_shape {
        }
        int_val: 1
      }
    }
  }
}
node {
  name: "linear/linear/range"
  op: "Range"
  input: "linear/linear/range/start"
  input: "linear/linear/strided_slice"
  input: "linear/linear/range/delta"
  attr {
    key: "Tidx"
    value {
      type: DT_INT32
    }
  }
  attr {
    key: "_output_shapes"
    value {
      list {
        shape {
          dim {
            size: 1855
          }
        }
      }
    }
  }
}
node {
  name: "linear/linear/zeros/Less/y"
  op: "Const"
  attr {
    key: "_output_shapes"
    value {
      list {
        shape {
        }
      }
    }
  }
  attr {
    key: "dtype"
    value {
      type: DT_INT32
    }
  }
  attr {
    key: "value"
    value {
      tensor {
        dtype: DT_INT32
        tensor_shape {
        }
        int_val: 1000
      }
    }
  }
}
node {
  name: "linear/linear/zeros/Less"
  op: "Less"
  input: "linear/linear/strided_slice"
  input: "linear/linear/zeros/Less/y"
  attr {
    key: "T"
    value {
      type: DT_INT32
    }
  }
  attr {
    key: "_output_shapes"
    value {
      list {
        shape {
        }
      }
    }
  }
}
node {
  name: "linear/linear/zeros/packed"
  op: "Pack"
  input: "linear/linear/strided_slice"
  attr {
    key: "N"
    value {
      i: 1
    }
  }
  attr {
    key: "T"
    value {
      type: DT_INT32
    }
  }
  attr {
    key: "_output_shapes"
    value {
      list {
        shape {
          dim {
            size: 1
          }
        }
      }
    }
  }
  attr {
    key: "axis"
    value {
      i: 0
    }
  }
}
node {
  name: "linear/linear/zeros/Const"
  op: "Const"
  attr {
    key: "_output_shapes"
    value {
      list {
        shape {
        }
      }
    }
  }
  attr {
    key: "dtype"
    value {
      type: DT_INT32
    }
  }
  attr {
    key: "value"
    value {
      tensor {
        dtype: DT_INT32
        tensor_shape {
        }
        int_val: 0
      }
    }
  }
}
node {
  name: "linear/linear/zeros"
  op: "Fill"
  input: "linear/linear/zeros/packed"
  input: "linear/linear/zeros/Const"
  attr {
    key: "T"
    value {
      type: DT_INT32
    }
  }
  attr {
    key: "_output_shapes"
    value {
      list {
        shape {
          dim {
            size: 1855
          }
        }
      }
    }
  }
  attr {
    key: "index_type"
    value {
      type: DT_INT32
    }
  }
}
node {
  name: "linear/linear/reshape/shape"
  op: "Const"
  attr {
    key: "_output_shapes"
    value {
      list {
        shape {
          dim {
            size: 1
          }
        }
      }
    }
  }
  attr {
    key: "dtype"
    value {
      type: DT_INT32
    }
  }
  attr {
    key: "value"
    value {
      tensor {
        dtype: DT_INT32
        tensor_shape {
          dim {
            size: 1
          }
        }
        int_val: -1
      }
    }
  }
}
node {
  name: "linear/linear/reshape"
  op: "Reshape"
  input: "linear/linear/bucketize"
  input: "linear/linear/reshape/shape"
  attr {
    key: "T"
    value {
      type: DT_INT32
    }
  }
  attr {
    key: "Tshape"
    value {
      type: DT_INT32
    }
  }
  attr {
    key: "_output_shapes"
    value {
      list {
        shape {
          dim {
            size: 1855
          }
        }
      }
    }
  }
}
node {
  name: "linear/linear/stack"
  op: "Pack"
  input: "linear/linear/range"
  input: "linear/linear/zeros"
  attr {
    key: "N"
    value {
      i: 2
    }
  }
  attr {
    key: "T"
    value {
      type: DT_INT32
    }
  }
  attr {
    key: "_output_shapes"
    value {
      list {
        shape {
          dim {
            size: 2
          }
          dim {
            size: 1855
          }
        }
      }
    }
  }
  attr {
    key: "axis"
    value {
      i: 0
    }
  }
}
node {
  name: "linear/linear/transpose/Rank"
  op: "Rank"
  input: "linear/linear/stack"
  attr {
    key: "T"
    value {
      type: DT_INT32
    }
  }
  attr {
    key: "_output_shapes"
    value {
      list {
        shape {
        }
      }
    }
  }
}
node {
  name: "linear/linear/transpose/sub/y"
  op: "Const"
  attr {
    key: "_output_shapes"
    value {
      list {
        shape {
        }
      }
    }
  }
  attr {
    key: "dtype"
    value {
      type: DT_INT32
    }
  }
  attr {
    key: "value"
    value {
      tensor {
        dtype: DT_INT32
        tensor_shape {
        }
        int_val: 1
      }
    }
  }
}
node {
  name: "linear/linear/transpose/sub"
  op: "Sub"
  input: "linear/linear/transpose/Rank"
  input: "linear/linear/transpose/sub/y"
  attr {
    key: "T"
    value {
      type: DT_INT32
    }
  }
  attr {
    key: "_output_shapes"
    value {
      list {
        shape {
        }
      }
    }
  }
}
node {
  name: "linear/linear/transpose/Range/start"
  op: "Const"
  attr {
    key: "_output_shapes"
    value {
      list {
        shape {
        }
      }
    }
  }
  attr {
    key: "dtype"
    value {
      type: DT_INT32
    }
  }
  attr {
    key: "value"
    value {
      tensor {
        dtype: DT_INT32
        tensor_shape {
        }
        int_val: 0
      }
    }
  }
}
node {
  name: "linear/linear/transpose/Range/delta"
  op: "Const"
  attr {
    key: "_output_shapes"
    value {
      list {
        shape {
        }
      }
    }
  }
  attr {
    key: "dtype"
    value {
      type: DT_INT32
    }
  }
  attr {
    key: "value"
    value {
      tensor {
        dtype: DT_INT32
        tensor_shape {
        }
        int_val: 1
      }
    }
  }
}
node {
  name: "linear/linear/transpose/Range"
  op: "Range"
  input: "linear/linear/transpose/Range/start"
  input: "linear/linear/transpose/Rank"
  input: "linear/linear/transpose/Range/delta"
  attr {
    key: "Tidx"
    value {
      type: DT_INT32
    }
  }
  attr {
    key: "_output_shapes"
    value {
      list {
        shape {
          dim {
            size: 2
          }
        }
      }
    }
  }
}
node {
  name: "linear/linear/transpose/sub_1"
  op: "Sub"
  input: "linear/linear/transpose/sub"
  input: "linear/linear/transpose/Range"
  attr {
    key: "T"
    value {
      type: DT_INT32
    }
  }
  attr {
    key: "_output_shapes"
    value {
      list {
        shape {
          dim {
            size: 2
          }
        }
      }
    }
  }
}
node {
  name: "linear/linear/transpose"
  op: "Transpose"
  input: "linear/linear/stack"
  input: "linear/linear/transpose/sub_1"
  attr {
    key: "T"
    value {
      type: DT_INT32
    }
  }
  attr {
    key: "Tperm"
    value {
      type: DT_INT32
    }
  }
  attr {
    key: "_output_shapes"
    value {
      list {
        shape {
          dim {
            size: 1855
          }
          dim {
            size: 2
          }
        }
      }
    }
  }
}
node {
  name: "linear/linear/ToInt64"
  op: "Cast"
  input: "linear/linear/transpose"
  attr {
    key: "DstT"
    value {
      type: DT_INT64
    }
  }
  attr {
    key: "SrcT"
    value {
      type: DT_INT32
    }
  }
  attr {
    key: "Truncate"
    value {
      b: false
    }
  }
  attr {
    key: "_output_shapes"
    value {
      list {
        shape {
          dim {
            size: 1855
          }
          dim {
            size: 2
          }
        }
      }
    }
  }
}
node {
  name: "linear/linear/stack_1/1"
  op: "Const"
  attr {
    key: "_output_shapes"
    value {
      list {
        shape {
        }
      }
    }
  }
  attr {
    key: "dtype"
    value {
      type: DT_INT32
    }
  }
  attr {
    key: "value"
    value {
      tensor {
        dtype: DT_INT32
        tensor_shape {
        }
        int_val: 1
      }
    }
  }
}
node {
  name: "linear/linear/stack_1"
  op: "Pack"
  input: "linear/linear/strided_slice"
  input: "linear/linear/stack_1/1"
  attr {
    key: "N"
    value {
      i: 2
    }
  }
  attr {
    key: "T"
    value {
      type: DT_INT32
    }
  }
  attr {
    key: "_output_shapes"
    value {
      list {
        shape {
          dim {
            size: 2
          }
        }
      }
    }
  }
  attr {
    key: "axis"
    value {
      i: 0
    }
  }
}
node {
  name: "linear/linear/ToInt64_1"
  op: "Cast"
  input: "linear/linear/stack_1"
  attr {
    key: "DstT"
    value {
      type: DT_INT64
    }
  }
  attr {
    key: "SrcT"
    value {
      type: DT_INT32
    }
  }
  attr {
    key: "Truncate"
    value {
      b: false
    }
  }
  attr {
    key: "_output_shapes"
    value {
      list {
        shape {
          dim {
            size: 2
          }
        }
      }
    }
  }
}
node {
  name: "linear/size_bucketized/weights/part_0/Initializer/zeros"
  op: "Const"
  attr {
    key: "_class"
    value {
      list {
        s: "loc:@linear/size_bucketized/weights/part_0"
      }
    }
  }
  attr {
    key: "_output_shapes"
    value {
      list {
        shape {
          dim {
            size: 31
          }
          dim {
            size: 1
          }
        }
      }
    }
  }
  attr {
    key: "dtype"
    value {
      type: DT_FLOAT
    }
  }
  attr {
    key: "value"
    value {
      tensor {
        dtype: DT_FLOAT
        tensor_shape {
          dim {
            size: 31
          }
          dim {
            size: 1
          }
        }
        float_val: 0.0
      }
    }
  }
}
node {
  name: "linear/size_bucketized/weights/part_0"
  op: "VariableV2"
  attr {
    key: "_class"
    value {
      list {
        s: "loc:@linear/size_bucketized/weights/part_0"
      }
    }
  }
  attr {
    key: "_output_shapes"
    value {
      list {
        shape {
          dim {
            size: 31
          }
          dim {
            size: 1
          }
        }
      }
    }
  }
  attr {
    key: "container"
    value {
      s: ""
    }
  }
  attr {
    key: "dtype"
    value {
      type: DT_FLOAT
    }
  }
  attr {
    key: "shape"
    value {
      shape {
        dim {
          size: 31
        }
        dim {
          size: 1
        }
      }
    }
  }
  attr {
    key: "shared_name"
    value {
      s: ""
    }
  }
}
node {
  name: "linear/size_bucketized/weights/part_0/Assign"
  op: "Assign"
  input: "linear/size_bucketized/weights/part_0"
  input: "linear/size_bucketized/weights/part_0/Initializer/zeros"
  attr {
    key: "T"
    value {
      type: DT_FLOAT
    }
  }
  attr {
    key: "_class"
    value {
      list {
        s: "loc:@linear/size_bucketized/weights/part_0"
      }
    }
  }
  attr {
    key: "_output_shapes"
    value {
      list {
        shape {
          dim {
            size: 31
          }
          dim {
            size: 1
          }
        }
      }
    }
  }
  attr {
    key: "use_locking"
    value {
      b: true
    }
  }
  attr {
    key: "validate_shape"
    value {
      b: true
    }
  }
}
node {
  name: "linear/size_bucketized/weights/part_0/read"
  op: "Identity"
  input: "linear/size_bucketized/weights/part_0"
  attr {
    key: "T"
    value {
      type: DT_FLOAT
    }
  }
  attr {
    key: "_class"
    value {
      list {
        s: "loc:@linear/size_bucketized/weights/part_0"
      }
    }
  }
  attr {
    key: "_output_shapes"
    value {
      list {
        shape {
          dim {
            size: 31
          }
          dim {
            size: 1
          }
        }
      }
    }
  }
}
node {
  name: "linear/linear/size_bucketized/size_bucketized_weights/Slice/begin"
  op: "Const"
  attr {
    key: "_output_shapes"
    value {
      list {
        shape {
          dim {
            size: 1
          }
        }
      }
    }
  }
  attr {
    key: "dtype"
    value {
      type: DT_INT32
    }
  }
  attr {
    key: "value"
    value {
      tensor {
        dtype: DT_INT32
        tensor_shape {
          dim {
            size: 1
          }
        }
        int_val: 0
      }
    }
  }
}
node {
  name: "linear/linear/size_bucketized/size_bucketized_weights/Slice/size"
  op: "Const"
  attr {
    key: "_output_shapes"
    value {
      list {
        shape {
          dim {
            size: 1
          }
        }
      }
    }
  }
  attr {
    key: "dtype"
    value {
      type: DT_INT32
    }
  }
  attr {
    key: "value"
    value {
      tensor {
        dtype: DT_INT32
        tensor_shape {
          dim {
            size: 1
          }
        }
        int_val: 1
      }
    }
  }
}
node {
  name: "linear/linear/size_bucketized/size_bucketized_weights/Slice"
  op: "Slice"
  input: "linear/linear/ToInt64_1"
  input: "linear/linear/size_bucketized/size_bucketized_weights/Slice/begin"
  input: "linear/linear/size_bucketized/size_bucketized_weights/Slice/size"
  attr {
    key: "Index"
    value {
      type: DT_INT32
    }
  }
  attr {
    key: "T"
    value {
      type: DT_INT64
    }
  }
  attr {
    key: "_output_shapes"
    value {
      list {
        shape {
          dim {
            size: 1
          }
        }
      }
    }
  }
}
node {
  name: "linear/linear/size_bucketized/size_bucketized_weights/Const"
  op: "Const"
  attr {
    key: "_output_shapes"
    value {
      list {
        shape {
          dim {
            size: 1
          }
        }
      }
    }
  }
  attr {
    key: "dtype"
    value {
      type: DT_INT32
    }
  }
  attr {
    key: "value"
    value {
      tensor {
        dtype: DT_INT32
        tensor_shape {
          dim {
            size: 1
          }
        }
        int_val: 0
      }
    }
  }
}
node {
  name: "linear/linear/size_bucketized/size_bucketized_weights/Prod"
  op: "Prod"
  input: "linear/linear/size_bucketized/size_bucketized_weights/Slice"
  input: "linear/linear/size_bucketized/size_bucketized_weights/Const"
  attr {
    key: "T"
    value {
      type: DT_INT64
    }
  }
  attr {
    key: "Tidx"
    value {
      type: DT_INT32
    }
  }
  attr {
    key: "_output_shapes"
    value {
      list {
        shape {
        }
      }
    }
  }
  attr {
    key: "keep_dims"
    value {
      b: false
    }
  }
}
node {
  name: "linear/linear/size_bucketized/size_bucketized_weights/GatherV2/indices"
  op: "Const"
  attr {
    key: "_output_shapes"
    value {
      list {
        shape {
        }
      }
    }
  }
  attr {
    key: "dtype"
    value {
      type: DT_INT32
    }
  }
  attr {
    key: "value"
    value {
      tensor {
        dtype: DT_INT32
        tensor_shape {
        }
        int_val: 1
      }
    }
  }
}
node {
  name: "linear/linear/size_bucketized/size_bucketized_weights/GatherV2/axis"
  op: "Const"
  attr {
    key: "_output_shapes"
    value {
      list {
        shape {
        }
      }
    }
  }
  attr {
    key: "dtype"
    value {
      type: DT_INT32
    }
  }
  attr {
    key: "value"
    value {
      tensor {
        dtype: DT_INT32
        tensor_shape {
        }
        int_val: 0
      }
    }
  }
}
node {
  name: "linear/linear/size_bucketized/size_bucketized_weights/GatherV2"
  op: "GatherV2"
  input: "linear/linear/ToInt64_1"
  input: "linear/linear/size_bucketized/size_bucketized_weights/GatherV2/indices"
  input: "linear/linear/size_bucketized/size_bucketized_weights/GatherV2/axis"
  attr {
    key: "Taxis"
    value {
      type: DT_INT32
    }
  }
  attr {
    key: "Tindices"
    value {
      type: DT_INT32
    }
  }
  attr {
    key: "Tparams"
    value {
      type: DT_INT64
    }
  }
  attr {
    key: "_output_shapes"
    value {
      list {
        shape {
        }
      }
    }
  }
}
node {
  name: "linear/linear/size_bucketized/size_bucketized_weights/Cast/x"
  op: "Pack"
  input: "linear/linear/size_bucketized/size_bucketized_weights/Prod"
  input: "linear/linear/size_bucketized/size_bucketized_weights/GatherV2"
  attr {
    key: "N"
    value {
      i: 2
    }
  }
  attr {
    key: "T"
    value {
      type: DT_INT64
    }
  }
  attr {
    key: "_output_shapes"
    value {
      list {
        shape {
          dim {
            size: 2
          }
        }
      }
    }
  }
  attr {
    key: "axis"
    value {
      i: 0
    }
  }
}
node {
  name: "linear/linear/size_bucketized/size_bucketized_weights/SparseReshape"
  op: "SparseReshape"
  input: "linear/linear/ToInt64"
  input: "linear/linear/ToInt64_1"
  input: "linear/linear/size_bucketized/size_bucketized_weights/Cast/x"
  attr {
    key: "_output_shapes"
    value {
      list {
        shape {
          dim {
            size: 1855
          }
          dim {
            size: 2
          }
        }
        shape {
          dim {
            size: 2
          }
        }
      }
    }
  }
}
node {
  name: "linear/linear/size_bucketized/size_bucketized_weights/SparseReshape/Identity"
  op: "Identity"
  input: "linear/linear/reshape"
  attr {
    key: "T"
    value {
      type: DT_INT32
    }
  }
  attr {
    key: "_output_shapes"
    value {
      list {
        shape {
          dim {
            size: 1855
          }
        }
      }
    }
  }
}
node {
  name: "linear/linear/size_bucketized/size_bucketized_weights/GreaterEqual/y"
  op: "Const"
  attr {
    key: "_output_shapes"
    value {
      list {
        shape {
        }
      }
    }
  }
  attr {
    key: "dtype"
    value {
      type: DT_INT32
    }
  }
  attr {
    key: "value"
    value {
      tensor {
        dtype: DT_INT32
        tensor_shape {
        }
        int_val: 0
      }
    }
  }
}
node {
  name: "linear/linear/size_bucketized/size_bucketized_weights/GreaterEqual"
  op: "GreaterEqual"
  input: "linear/linear/size_bucketized/size_bucketized_weights/SparseReshape/Identity"
  input: "linear/linear/size_bucketized/size_bucketized_weights/GreaterEqual/y"
  attr {
    key: "T"
    value {
      type: DT_INT32
    }
  }
  attr {
    key: "_output_shapes"
    value {
      list {
        shape {
          dim {
            size: 1855
          }
        }
      }
    }
  }
}
node {
  name: "linear/linear/size_bucketized/size_bucketized_weights/Where"
  op: "Where"
  input: "linear/linear/size_bucketized/size_bucketized_weights/GreaterEqual"
  attr {
    key: "T"
    value {
      type: DT_BOOL
    }
  }
  attr {
    key: "_output_shapes"
    value {
      list {
        shape {
          dim {
            size: -1
          }
          dim {
            size: 1
          }
        }
      }
    }
  }
}
node {
  name: "linear/linear/size_bucketized/size_bucketized_weights/Reshape/shape"
  op: "Const"
  attr {
    key: "_output_shapes"
    value {
      list {
        shape {
          dim {
            size: 1
          }
        }
      }
    }
  }
  attr {
    key: "dtype"
    value {
      type: DT_INT32
    }
  }
  attr {
    key: "value"
    value {
      tensor {
        dtype: DT_INT32
        tensor_shape {
          dim {
            size: 1
          }
        }
        int_val: -1
      }
    }
  }
}
node {
  name: "linear/linear/size_bucketized/size_bucketized_weights/Reshape"
  op: "Reshape"
  input: "linear/linear/size_bucketized/size_bucketized_weights/Where"
  input: "linear/linear/size_bucketized/size_bucketized_weights/Reshape/shape"
  attr {
    key: "T"
    value {
      type: DT_INT64
    }
  }
  attr {
    key: "Tshape"
    value {
      type: DT_INT32
    }
  }
  attr {
    key: "_output_shapes"
    value {
      list {
        shape {
          dim {
            size: -1
          }
        }
      }
    }
  }
}
node {
  name: "linear/linear/size_bucketized/size_bucketized_weights/GatherV2_1/axis"
  op: "Const"
  attr {
    key: "_output_shapes"
    value {
      list {
        shape {
        }
      }
    }
  }
  attr {
    key: "dtype"
    value {
      type: DT_INT32
    }
  }
  attr {
    key: "value"
    value {
      tensor {
…
      list {
        s: "loc:@linear/bias_weight/part_0"
      }
    }
  }
  attr {
    key: "_output_shapes"
    value {
      list {
        shape {
        }
      }
    }
  }
  attr {
    key: "dtype"
    value {
      type: DT_FLOAT
    }
  }
}
node {
  name: "report_uninitialized_variables_1/stack"
  op: "Pack"
  input: "report_uninitialized_variables_1/IsVariableInitialized"
  input: "report_uninitialized_variables_1/IsVariableInitialized_1"
  input: "report_uninitialized_variables_1/IsVariableInitialized_2"
  input: "report_uninitialized_variables_1/IsVariableInitialized_3"
  input: "report_uninitialized_variables_1/IsVariableInitialized_4"
  input: "report_uninitialized_variables_1/IsVariableInitialized_5"
  input: "report_uninitialized_variables_1/IsVariableInitialized_6"
  input: "report_uninitialized_variables_1/IsVariableInitialized_7"
  input: "report_uninitialized_variables_1/IsVariableInitialized_8"
  input: "report_uninitialized_variables_1/IsVariableInitialized_9"
  input: "report_uninitialized_variables_1/IsVariableInitialized_10"
  input: "report_uninitialized_variables_1/IsVariableInitialized_11"
  input: "report_uninitialized_variables_1/IsVariableInitialized_12"
  input: "report_uninitialized_variables_1/IsVariableInitialized_13"
  input: "report_uninitialized_variables_1/IsVariableInitialized_14"
  input: "report_uninitialized_variables_1/IsVariableInitialized_15"
  input: "report_uninitialized_variables_1/IsVariableInitialized_16"
  input: "report_uninitialized_variables_1/IsVariableInitialized_17"
  input: "report_uninitialized_variables_1/IsVariableInitialized_18"
  input: "report_uninitialized_variables_1/IsVariableInitialized_19"
  input: "report_uninitialized_variables_1/IsVariableInitialized_20"
  device: "/device:CPU:0"
  attr {
    key: "N"
    value {
      i: 21
    }
  }
  attr {
    key: "T"
    value {
      type: DT_BOOL
    }
  }
  attr {
    key: "_output_shapes"
    value {
      list {
        shape {
          dim {
            size: 21
          }
        }
      }
    }
  }
  attr {
    key: "axis"
    value {
      i: 0
    }
  }
}
node {
  name: "report_uninitialized_variables_1/LogicalNot"
  op: "LogicalNot"
  input: "report_uninitialized_variables_1/stack"
  device: "/device:CPU:0"
  attr {
    key: "_output_shapes"
    value {
      list {
        shape {
          dim {
            size: 21
          }
        }
      }
    }
  }
}
node {
  name: "report_uninitialized_variables_1/Const"
  op: "Const"
  device: "/device:CPU:0"
  attr {
    key: "_output_shapes"
    value {
      list {
        shape {
          dim {
            size: 21
          }
        }
      }
    }
  }
  attr {
    key: "dtype"
    value {
      type: DT_STRING
    }
  }
  attr {
    key: "value"
    value {
      tensor {
        dtype: DT_STRING
        tensor_shape {
          dim {
            size: 21
          }
        }
        string_val: "global_step"
        string_val: "linear/size_bucketized/weights/part_0"
        string_val: "linear/bathroom/weight/part_0"
        string_val: "linear/bedroom/weight/part_0"
        string_val: "linear/property_type/weights/part_0"
        string_val: "linear/zipcode/weights/part_0"
        string_val: "linear/bias_weight/part_0"
        string_val: "linear/regression_head/train_op/beta1_power"
        string_val: "linear/regression_head/train_op/beta2_power"
        string_val: "linear/regression_head/linear/size_bucketized/weights/part_0/Adam"
        string_val: "linear/regression_head/linear/size_bucketized/weights/part_0/Adam_1"
        string_val: "linear/regression_head/linear/bathroom/weight/part_0/Adam"
        string_val: "linear/regression_head/linear/bathroom/weight/part_0/Adam_1"
        string_val: "linear/regression_head/linear/bedroom/weight/part_0/Adam"
        string_val: "linear/regression_head/linear/bedroom/weight/part_0/Adam_1"
        string_val: "linear/regression_head/linear/property_type/weights/part_0/Adam"
        string_val: "linear/regression_head/linear/property_type/weights/part_0/Adam_1"
        string_val: "linear/regression_head/linear/zipcode/weights/part_0/Adam"
        string_val: "linear/regression_head/linear/zipcode/weights/part_0/Adam_1"
        string_val: "linear/regression_head/linear/bias_weight/part_0/Adam"
        string_val: "linear/regression_head/linear/bias_weight/part_0/Adam_1"
      }
    }
  }
}
node {
  name: "report_uninitialized_variables_1/boolean_mask/Shape"
  op: "Const"
  device: "/device:CPU:0"
  attr {
    key: "_output_shapes"
    value {
      list {
        shape {
          dim {
            size: 1
          }
        }
      }
    }
  }
  attr {
    key: "dtype"
    value {
      type: DT_INT32
    }
  }
  attr {
    key: "value"
    value {
      tensor {
        dtype: DT_INT32
        tensor_shape {
          dim {
            size: 1
          }
        }
        int_val: 21
      }
    }
  }
}
node {
  name: "report_uninitialized_variables_1/boolean_mask/strided_slice/stack"
  op: "Const"
  device: "/device:CPU:0"
  attr {
    key: "_output_shapes"
    value {
      list {
        shape {
          dim {
            size: 1
          }
        }
      }
    }
  }
  attr {
    key: "dtype"
    value {
      type: DT_INT32
    }
  }
  attr {
    key: "value"
    value {
      tensor {
        dtype: DT_INT32
        tensor_shape {
          dim {
            size: 1
          }
        }
        int_val: 0
      }
    }
  }
}
node {
  name: "report_uninitialized_variables_1/boolean_mask/strided_slice/stack_1"
  op: "Const"
  device: "/device:CPU:0"
  attr {
    key: "_output_shapes"
    value {
      list {
        shape {
          dim {
            size: 1
          }
        }
      }
    }
  }
  attr {
    key: "dtype"
    value {
      type: DT_INT32
    }
  }
  attr {
    key: "value"
    value {
      tensor {
        dtype: DT_INT32
        tensor_shape {
          dim {
            size: 1
          }
        }
        int_val: 1
      }
    }
  }
}
node {
  name: "report_uninitialized_variables_1/boolean_mask/strided_slice/stack_2"
  op: "Const"
  device: "/device:CPU:0"
  attr {
    key: "_output_shapes"
    value {
      list {
        shape {
          dim {
            size: 1
          }
        }
      }
    }
  }
  attr {
    key: "dtype"
    value {
      type: DT_INT32
    }
  }
  attr {
    key: "value"
    value {
      tensor {
        dtype: DT_INT32
        tensor_shape {
          dim {
            size: 1
          }
        }
        int_val: 1
      }
    }
  }
}
node {
  name: "report_uninitialized_variables_1/boolean_mask/strided_slice"
  op: "StridedSlice"
  input: "report_uninitialized_variables_1/boolean_mask/Shape"
  input: "report_uninitialized_variables_1/boolean_mask/strided_slice/stack"
  input: "report_uninitialized_variables_1/boolean_mask/strided_slice/stack_1"
  input: "report_uninitialized_variables_1/boolean_mask/strided_slice/stack_2"
  device: "/device:CPU:0"
  attr {
    key: "Index"
    value {
      type: DT_INT32
    }
  }
  attr {
    key: "T"
    value {
      type: DT_INT32
    }
  }
  attr {
    key: "_output_shapes"
    value {
      list {
        shape {
          dim {
            size: 1
          }
        }
      }
    }
  }
  attr {
    key: "begin_mask"
    value {
      i: 0
    }
  }
  attr {
    key: "ellipsis_mask"
    value {
      i: 0
    }
  }
  attr {
    key: "end_mask"
    value {
      i: 0
    }
  }
  attr {
    key: "new_axis_mask"
    value {
      i: 0
    }
  }
  attr {
    key: "shrink_axis_mask"
    value {
      i: 0
    }
  }
}
node {
  name: "report_uninitialized_variables_1/boolean_mask/Prod/reduction_indices"
  op: "Const"
  device: "/device:CPU:0"
  attr {
    key: "_output_shapes"
    value {
      list {
        shape {
          dim {
            size: 1
          }
        }
      }
    }
  }
  attr {
    key: "dtype"
    value {
      type: DT_INT32
    }
  }
  attr {
    key: "value"
    value {
      tensor {
        dtype: DT_INT32
        tensor_shape {
          dim {
            size: 1
          }
        }
        int_val: 0
      }
    }
  }
}
node {
  name: "report_uninitialized_variables_1/boolean_mask/Prod"
  op: "Prod"
  input: "report_uninitialized_variables_1/boolean_mask/strided_slice"
  input: "report_uninitialized_variables_1/boolean_mask/Prod/reduction_indices"
  device: "/device:CPU:0"
  attr {
    key: "T"
    value {
      type: DT_INT32
    }
  }
  attr {
    key: "Tidx"
    value {
      type: DT_INT32
    }
  }
  attr {
    key: "_output_shapes"
    value {
      list {
        shape {
        }
      }
    }
  }
  attr {
    key: "keep_dims"
    value {
      b: false
    }
  }
}
node {
  name: "report_uninitialized_variables_1/boolean_mask/Shape_1"
  op: "Const"
  device: "/device:CPU:0"
  attr {
    key: "_output_shapes"
    value {
      list {
        shape {
          dim {
            size: 1
          }
        }
      }
    }
  }
  attr {
    key: "dtype"
    value {
      type: DT_INT32
    }
  }
  attr {
    key: "value"
    value {
      tensor {
        dtype: DT_INT32
        tensor_shape {
          dim {
            size: 1
          }
        }
        int_val: 21
      }
    }
  }
}
node {
  name: "report_uninitialized_variables_1/boolean_mask/strided_slice_1/stack"
  op: "Const"
  device: "/device:CPU:0"
  attr {
    key: "_output_shapes"
    value {
      list {
        shape {
          dim {
            size: 1
          }
        }
      }
    }
  }
  attr {
    key: "dtype"
    value {
      type: DT_INT32
    }
  }
  attr {
    key: "value"
    value {
      tensor {
        dtype: DT_INT32
        tensor_shape {
          dim {
            size: 1
          }
        }
        int_val: 0
      }
    }
  }
}
node {
  name: "report_uninitialized_variables_1/boolean_mask/strided_slice_1/stack_1"
  op: "Const"
  device: "/device:CPU:0"
  attr {
    key: "_output_shapes"
    value {
      list {
        shape {
          dim {
            size: 1
          }
        }
      }
    }
  }
  attr {
    key: "dtype"
    value {
      type: DT_INT32
    }
  }
  attr {
    key: "value"
    value {
      tensor {
        dtype: DT_INT32
        tensor_shape {
          dim {
            size: 1
          }
        }
        int_val: 0
      }
    }
  }
}
node {
  name: "report_uninitialized_variables_1/boolean_mask/strided_slice_1/stack_2"
  op: "Const"
  device: "/device:CPU:0"
  attr {
    key: "_output_shapes"
    value {
      list {
        shape {
          dim {
            size: 1
          }
        }
      }
    }
  }
  attr {
    key: "dtype"
    value {
      type: DT_INT32
    }
  }
  attr {
    key: "value"
    value {
      tensor {
        dtype: DT_INT32
        tensor_shape {
          dim {
            size: 1
          }
        }
        int_val: 1
      }
    }
  }
}
node {
  name: "report_uninitialized_variables_1/boolean_mask/strided_slice_1"
  op: "StridedSlice"
  input: "report_uninitialized_variables_1/boolean_mask/Shape_1"
  input: "report_uninitialized_variables_1/boolean_mask/strided_slice_1/stack"
  input: "report_uninitialized_variables_1/boolean_mask/strided_slice_1/stack_1"
  input: "report_uninitialized_variables_1/boolean_mask/strided_slice_1/stack_2"
  device: "/device:CPU:0"
  attr {
    key: "Index"
    value {
      type: DT_INT32
    }
  }
  attr {
    key: "T"
    value {
      type: DT_INT32
    }
  }
  attr {
    key: "_output_shapes"
    value {
      list {
        shape {
          dim {
          }
        }
      }
    }
  }
  attr {
    key: "begin_mask"
    value {
      i: 1
    }
  }
  attr {
    key: "ellipsis_mask"
    value {
      i: 0
    }
  }
  attr {
    key: "end_mask"
    value {
      i: 0
    }
  }
  attr {
    key: "new_axis_mask"
    value {
      i: 0
    }
  }
  attr {
    key: "shrink_axis_mask"
    value {
      i: 0
    }
  }
}
node {
  name: "report_uninitialized_variables_1/boolean_mask/Shape_2"
  op: "Const"
  device: "/device:CPU:0"
  attr {
    key: "_output_shapes"
    value {
      list {
        shape {
          dim {
            size: 1
          }
        }
      }
    }
  }
  attr {
    key: "dtype"
    value {
      type: DT_INT32
    }
  }
  attr {
    key: "value"
    value {
      tensor {
        dtype: DT_INT32
        tensor_shape {
          dim {
            size: 1
          }
        }
        int_val: 21
      }
    }
  }
}
node {
  name: "report_uninitialized_variables_1/boolean_mask/strided_slice_2/stack"
  op: "Const"
  device: "/device:CPU:0"
  attr {
    key: "_output_shapes"
    value {
      list {
        shape {
          dim {
            size: 1
          }
        }
      }
    }
  }
  attr {
    key: "dtype"
    value {
      type: DT_INT32
    }
  }
  attr {
    key: "value"
    value {
      tensor {
        dtype: DT_INT32
        tensor_shape {
          dim {
            size: 1
          }
        }
        int_val: 1
      }
    }
  }
}
node {
  name: "report_uninitialized_variables_1/boolean_mask/strided_slice_2/stack_1"
  op: "Const"
  device: "/device:CPU:0"
  attr {
    key: "_output_shapes"
    value {
      list {
        shape {
          dim {
            size: 1
          }
        }
      }
    }
  }
  attr {
    key: "dtype"
    value {
      type: DT_INT32
    }
  }
  attr {
    key: "value"
    value {
      tensor {
        dtype: DT_INT32
        tensor_shape {
          dim {
            size: 1
          }
        }
        int_val: 0
      }
    }
  }
}
node {
  name: "report_uninitialized_variables_1/boolean_mask/strided_slice_2/stack_2"
  op: "Const"
  device: "/device:CPU:0"
  attr {
    key: "_output_shapes"
    value {
      list {
        shape {
          dim {
            size: 1
          }
        }
      }
    }
  }
  attr {
    key: "dtype"
    value {
      type: DT_INT32
    }
  }
  attr {
    key: "value"
    value {
      tensor {
        dtype: DT_INT32
        tensor_shape {
          dim {
            size: 1
          }
        }
        int_val: 1
      }
    }
  }
}
node {
  name: "report_uninitialized_variables_1/boolean_mask/strided_slice_2"
  op: "StridedSlice"
  input: "report_uninitialized_variables_1/boolean_mask/Shape_2"
  input: "report_uninitialized_variables_1/boolean_mask/strided_slice_2/stack"
  input: "report_uninitialized_variables_1/boolean_mask/strided_slice_2/stack_1"
  input: "report_uninitialized_variables_1/boolean_mask/strided_slice_2/stack_2"
  device: "/device:CPU:0"
  attr {
    key: "Index"
    value {
      type: DT_INT32
    }
  }
  attr {
    key: "T"
    value {
      type: DT_INT32
    }
  }
  attr {
    key: "_output_shapes"
    value {
      list {
        shape {
          dim {
          }
        }
      }
    }
  }
  attr {
    key: "begin_mask"
    value {
      i: 0
    }
  }
  attr {
    key: "ellipsis_mask"
    value {
      i: 0
    }
  }
  attr {
    key: "end_mask"
    value {
      i: 1
    }
  }
  attr {
    key: "new_axis_mask"
    value {
      i: 0
    }
  }
  attr {
    key: "shrink_axis_mask"
    value {
      i: 0
    }
  }
}
node {
  name: "report_uninitialized_variables_1/boolean_mask/concat/values_1"
  op: "Pack"
  input: "report_uninitialized_variables_1/boolean_mask/Prod"
  device: "/device:CPU:0"
  attr {
    key: "N"
    value {
      i: 1
    }
  }
  attr {
    key: "T"
    value {
      type: DT_INT32
    }
  }
  attr {
    key: "_output_shapes"
    value {
      list {
        shape {
          dim {
            size: 1
          }
        }
      }
    }
  }
  attr {
    key: "axis"
    value {
      i: 0
    }
  }
}
node {
  name: "report_uninitialized_variables_1/boolean_mask/concat/axis"
  op: "Const"
  device: "/device:CPU:0"
  attr {
    key: "_output_shapes"
    value {
      list {
        shape {
        }
      }
    }
  }
  attr {
    key: "dtype"
    value {
      type: DT_INT32
    }
  }
  attr {
    key: "value"
    value {
      tensor {
        dtype: DT_INT32
        tensor_shape {
        }
        int_val: 0
      }
    }
  }
}
node {
  name: "report_uninitialized_variables_1/boolean_mask/concat"
  op: "ConcatV2"
  input: "report_uninitialized_variables_1/boolean_mask/strided_slice_1"
  input: "report_uninitialized_variables_1/boolean_mask/concat/values_1"
  input: "report_uninitialized_variables_1/boolean_mask/strided_slice_2"
  input: "report_uninitialized_variables_1/boolean_mask/concat/axis"
  device: "/device:CPU:0"
  attr {
    key: "N"
    value {
      i: 3
    }
  }
  attr {
    key: "T"
    value {
      type: DT_INT32
    }
  }
  attr {
    key: "Tidx"
    value {
      type: DT_INT32
    }
  }
  attr {
    key: "_output_shapes"
    value {
      list {
        shape {
          dim {
            size: 1
          }
        }
      }
    }
  }
}
node {
  name: "report_uninitialized_variables_1/boolean_mask/Reshape"
  op: "Reshape"
  input: "report_uninitialized_variables_1/Const"
  input: "report_uninitialized_variables_1/boolean_mask/concat"
  device: "/device:CPU:0"
  attr {
    key: "T"
    value {
      type: DT_STRING
    }
  }
  attr {
    key: "Tshape"
    value {
      type: DT_INT32
    }
  }
  attr {
    key: "_output_shapes"
    value {
      list {
        shape {
          dim {
            size: 21
          }
        }
      }
    }
  }
}
node {
  name: "report_uninitialized_variables_1/boolean_mask/Reshape_1/shape"
  op: "Const"
  device: "/device:CPU:0"
  attr {
    key: "_output_shapes"
    value {
      list {
        shape {
          dim {
            size: 1
          }
        }
      }
    }
  }
  attr {
    key: "dtype"
    value {
      type: DT_INT32
    }
  }
  attr {
    key: "value"
    value {
      tensor {
        dtype: DT_INT32
        tensor_shape {
          dim {
            size: 1
          }
        }
        int_val: -1
      }
    }
  }
}
node {
  name: "report_uninitialized_variables_1/boolean_mask/Reshape_1"
  op: "Reshape"
  input: "report_uninitialized_variables_1/LogicalNot"
  input: "report_uninitialized_variables_1/boolean_mask/Reshape_1/shape"
  device: "/device:CPU:0"
  attr {
    key: "T"
    value {
      type: DT_BOOL
    }
  }
  attr {
    key: "Tshape"
    value {
      type: DT_INT32
    }
  }
  attr {
    key: "_output_shapes"
    value {
      list {
        shape {
          dim {
            size: 21
          }
        }
      }
    }
  }
}
node {
  name: "report_uninitialized_variables_1/boolean_mask/Where"
  op: "Where"
  input: "report_uninitialized_variables_1/boolean_mask/Reshape_1"
  device: "/device:CPU:0"
  attr {
    key: "T"
    value {
      type: DT_BOOL
    }
  }
  attr {
    key: "_output_shapes"
    value {
      list {
        shape {
          dim {
            size: -1
          }
          dim {
            size: 1
          }
        }
      }
    }
  }
}
node {
  name: "report_uninitialized_variables_1/boolean_mask/Squeeze"
  op: "Squeeze"
  input: "report_uninitialized_variables_1/boolean_mask/Where"
  device: "/device:CPU:0"
  attr {
    key: "T"
    value {
      type: DT_INT64
    }
  }
  attr {
    key: "_output_shapes"
    value {
      list {
        shape {
          dim {
            size: -1
          }
        }
      }
    }
  }
  attr {
    key: "squeeze_dims"
    value {
      list {
        i: 1
      }
    }
  }
}
node {
  name: "report_uninitialized_variables_1/boolean_mask/GatherV2/axis"
  op: "Const"
  device: "/device:CPU:0"
  attr {
    key: "_output_shapes"
    value {
      list {
        shape {
        }
      }
    }
  }
  attr {
    key: "dtype"
    value {
      type: DT_INT32
    }
  }
  attr {
    key: "value"
    value {
      tensor {
        dtype: DT_INT32
        tensor_shape {
        }
        int_val: 0
      }
    }
  }
}
node {
  name: "report_uninitialized_variables_1/boolean_mask/GatherV2"
  op: "GatherV2"
  input: "report_uninitialized_variables_1/boolean_mask/Reshape"
  input: "report_uninitialized_variables_1/boolean_mask/Squeeze"
  input: "report_uninitialized_variables_1/boolean_mask/GatherV2/axis"
  device: "/device:CPU:0"
  attr {
    key: "Taxis"
    value {
      type: DT_INT32
    }
  }
  attr {
    key: "Tindices"
    value {
      type: DT_INT64
    }
  }
  attr {
    key: "Tparams"
    value {
      type: DT_STRING
    }
  }
  attr {
    key: "_output_shapes"
    value {
      list {
        shape {
          dim {
            size: -1
          }
        }
      }
    }
  }
}
node {
  name: "init_2"
  op: "NoOp"
  input: "^linear/regression_head/metrics/mean/count/Assign"
  input: "^linear/regression_head/metrics/mean/total/Assign"
}
node {
  name: "init_all_tables"
  op: "NoOp"
}
node {
  name: "init_3"
  op: "NoOp"
}
node {
  name: "group_deps_1"
  op: "NoOp"
  input: "^init_2"
  input: "^init_3"
  input: "^init_all_tables"
}
node {
  name: "Merge/MergeSummary"
  op: "MergeSummary"
  input: "loss"
  attr {
    key: "N"
    value {
      i: 1
    }
  }
  attr {
    key: "_output_shapes"
    value {
      list {
        shape {
        }
      }
    }
  }
}
node {
  name: "save/Const"
  op: "Const"
  attr {
    key: "_output_shapes"
    value {
      list {
        shape {
        }
      }
    }
  }
  attr {
    key: "dtype"
    value {
      type: DT_STRING
    }
  }
  attr {
    key: "value"
    value {
      tensor {
        dtype: DT_STRING
        tensor_shape {
        }
        string_val: "model"
      }
    }
  }
}
node {
  name: "save/StringJoin/inputs_1"
  op: "Const"
  attr {
    key: "_output_shapes"
    value {
      list {
        shape {
        }
      }
    }
  }
  attr {
    key: "dtype"
    value {
      type: DT_STRING
    }
  }
  attr {
    key: "value"
    value {
      tensor {
        dtype: DT_STRING
        tensor_shape {
        }
        string_val: "_temp_77783e3320194282a4d2c736ce2c5cf1/part"
      }
    }
  }
}
node {
  name: "save/StringJoin"
  op: "StringJoin"
  input: "save/Const"
  input: "save/StringJoin/inputs_1"
  attr {
    key: "N"
    value {
      i: 2
    }
  }
  attr {
    key: "_output_shapes"
    value {
      list {
        shape {
        }
      }
    }
  }
  attr {
    key: "separator"
    value {
      s: ""
    }
  }
}
node {
  name: "save/num_shards"
  op: "Const"
  attr {
    key: "_output_shapes"
    value {
      list {
        shape {
        }
      }
    }
  }
  attr {
    key: "dtype"
    value {
      type: DT_INT32
    }
  }
  attr {
    key: "value"
    value {
      tensor {
        dtype: DT_INT32
        tensor_shape {
        }
        int_val: 1
      }
    }
  }
}
node {
  name: "save/ShardedFilename/shard"
  op: "Const"
  device: "/device:CPU:0"
  attr {
    key: "_output_shapes"
    value {
      list {
        shape {
        }
      }
    }
  }
  attr {
    key: "dtype"
    value {
      type: DT_INT32
    }
  }
  attr {
    key: "value"
    value {
      tensor {
        dtype: DT_INT32
        tensor_shape {
        }
        int_val: 0
      }
    }
  }
}
node {
  name: "save/ShardedFilename"
  op: "ShardedFilename"
  input: "save/StringJoin"
  input: "save/ShardedFilename/shard"
  input: "save/num_shards"
  device: "/device:CPU:0"
  attr {
    key: "_output_shapes"
    value {
      list {
        shape {
        }
      }
    }
  }
}
node {
  name: "save/SaveV2/tensor_names"
  op: "Const"
  device: "/device:CPU:0"
  attr {
    key: "_output_shapes"
    value {
      list {
        shape {
          dim {
            size: 21
          }
        }
      }
    }
  }
  attr {
    key: "dtype"
    value {
      type: DT_STRING
    }
  }
  attr {
    key: "value"
    value {
      tensor {
        dtype: DT_STRING
        tensor_shape {
          dim {
            size: 21
          }
        }
        string_val: "global_step"
        string_val: "linear/bathroom/weight"
        string_val: "linear/bathroom/weight/bathroom/weight/part_0/Adam"
        string_val: "linear/bathroom/weight/bathroom/weight/part_0/Adam_1"
        string_val: "linear/bedroom/weight"
        string_val: "linear/bedroom/weight//bedroom/weight/part_0/Adam"
        string_val: "linear/bedroom/weight//bedroom/weight/part_0/Adam_1"
        string_val: "linear/bias_weight"
        string_val: "linear/bias_weight/ear/bias_weight/part_0/Adam"
        string_val: "linear/bias_weight/ear/bias_weight/part_0/Adam_1"
        string_val: "linear/property_type/weights"
        string_val: "linear/property_type/weights/ty_type/weights/part_0/Adam"
        string_val: "linear/property_type/weights/ty_type/weights/part_0/Adam_1"
        string_val: "linear/regression_head/train_op/beta1_power"
        string_val: "linear/regression_head/train_op/beta2_power"
        string_val: "linear/size_bucketized/weights"
        string_val: "linear/size_bucketized/weights/ketized/weights/part_0/Adam"
        string_val: "linear/size_bucketized/weights/ketized/weights/part_0/Adam_1"
        string_val: "linear/zipcode/weights"
        string_val: "linear/zipcode/weights/zipcode/weights/part_0/Adam"
        string_val: "linear/zipcode/weights/zipcode/weights/part_0/Adam_1"
      }
    }
  }
}
node {
  name: "save/SaveV2/shape_and_slices"
  op: "Const"
  device: "/device:CPU:0"
  attr {
    key: "_output_shapes"
    value {
      list {
        shape {
          dim {
            size: 21
          }
        }
      }
    }
  }
  attr {
    key: "dtype"
    value {
      type: DT_STRING
    }
  }
  attr {
    key: "value"
    value {
      tensor {
        dtype: DT_STRING
        tensor_shape {
          dim {
            size: 21
          }
        }
        string_val: ""
        string_val: "1 1 0,1:0,1"
        string_val: "1 1 0,1:0,1"
        string_val: "1 1 0,1:0,1"
        string_val: "1 1 0,1:0,1"
        string_val: "1 1 0,1:0,1"
        string_val: "1 1 0,1:0,1"
        string_val: "1 0,1"
        string_val: "1 0,1"
        string_val: "1 0,1"
        string_val: "50 1 0,50:0,1"
        string_val: "50 1 0,50:0,1"
        string_val: "50 1 0,50:0,1"
        string_val: ""
        string_val: ""
        string_val: "31 1 0,31:0,1"
        string_val: "31 1 0,31:0,1"
        string_val: "31 1 0,31:0,1"
        string_val: "1000 1 0,1000:0,1"
        string_val: "1000 1 0,1000:0,1"
        string_val: "1000 1 0,1000:0,1"
      }
    }
  }
}
node {
  name: "save/SaveV2"
  op: "SaveV2"
  input: "save/ShardedFilename"
  input: "save/SaveV2/tensor_names"
  input: "save/SaveV2/shape_and_slices"
  input: "global_step"
  input: "linear/bathroom/weight/part_0/read"
  input: "linear/regression_head/linear/bathroom/weight/part_0/Adam/read"
  input: "linear/regression_head/linear/bathroom/weight/part_0/Adam_1/read"
  input: "linear/bedroom/weight/part_0/read"
  input: "linear/regression_head/linear/bedroom/weight/part_0/Adam/read"
  input: "linear/regression_head/linear/bedroom/weight/part_0/Adam_1/read"
  input: "linear/bias_weight/part_0/read"
  input: "linear/regression_head/linear/bias_weight/part_0/Adam/read"
  input: "linear/regression_head/linear/bias_weight/part_0/Adam_1/read"
  input: "linear/property_type/weights/part_0/read"
  input: "linear/regression_head/linear/property_type/weights/part_0/Adam/read"
  input: "linear/regression_head/linear/property_type/weights/part_0/Adam_1/read"
  input: "linear/regression_head/train_op/beta1_power"
  input: "linear/regression_head/train_op/beta2_power"
  input: "linear/size_bucketized/weights/part_0/read"
  input: "linear/regression_head/linear/size_bucketized/weights/part_0/Adam/read"
  input: "linear/regression_head/linear/size_bucketized/weights/part_0/Adam_1/read"
  input: "linear/zipcode/weights/part_0/read"
  input: "linear/regression_head/linear/zipcode/weights/part_0/Adam/read"
  input: "linear/regression_head/linear/zipcode/weights/part_0/Adam_1/read"
  device: "/device:CPU:0"
  attr {
    key: "dtypes"
    value {
      list {
        type: DT_INT64
        type: DT_FLOAT
        type: DT_FLOAT
        type: DT_FLOAT
        type: DT_FLOAT
        type: DT_FLOAT
        type: DT_FLOAT
        type: DT_FLOAT
        type: DT_FLOAT
        type: DT_FLOAT
        type: DT_FLOAT
        type: DT_FLOAT
        type: DT_FLOAT
        type: DT_FLOAT
        type: DT_FLOAT
        type: DT_FLOAT
        type: DT_FLOAT
        type: DT_FLOAT
        type: DT_FLOAT
        type: DT_FLOAT
        type: DT_FLOAT
      }
    }
  }
}
node {
  name: "save/control_dependency"
  op: "Identity"
  input: "save/ShardedFilename"
  input: "^save/SaveV2"
  device: "/device:CPU:0"
  attr {
    key: "T"
    value {
      type: DT_STRING
    }
  }
  attr {
    key: "_class"
    value {
      list {
        s: "loc:@save/ShardedFilename"
      }
    }
  }
  attr {
    key: "_output_shapes"
    value {
      list {
        shape {
        }
      }
    }
  }
}
node {
  name: "save/MergeV2Checkpoints/checkpoint_prefixes"
  op: "Pack"
  input: "save/ShardedFilename"
  input: "^save/control_dependency"
  device: "/device:CPU:0"
  attr {
    key: "N"
    value {
      i: 1
    }
  }
  attr {
    key: "T"
    value {
      type: DT_STRING
    }
  }
  attr {
    key: "_output_shapes"
    value {
      list {
        shape {
          dim {
            size: 1
          }
        }
      }
    }
  }
  attr {
    key: "axis"
    value {
      i: 0
    }
  }
}
node {
  name: "save/MergeV2Checkpoints"
  op: "MergeV2Checkpoints"
  input: "save/MergeV2Checkpoints/checkpoint_prefixes"
  input: "save/Const"
  device: "/device:CPU:0"
  attr {
    key: "delete_old_dirs"
    value {
      b: true
    }
  }
}
node {
  name: "save/Identity"
  op: "Identity"
  input: "save/Const"
  input: "^save/MergeV2Checkpoints"
  input: "^save/control_dependency"
  device: "/device:CPU:0"
  attr {
    key: "T"
    value {
      type: DT_STRING
    }
  }
  attr {
    key: "_output_shapes"
    value {
      list {
        shape {
        }
      }
    }
  }
}
node {
  name: "save/RestoreV2/tensor_names"
  op: "Const"
  device: "/device:CPU:0"
  attr {
    key: "_output_shapes"
    value {
      list {
        shape {
          dim {
            size: 21
          }
        }
      }
    }
  }
  attr {
    key: "dtype"
    value {
      type: DT_STRING
    }
  }
  attr {
    key: "value"
    value {
      tensor {
        dtype: DT_STRING
        tensor_shape {
          dim {
            size: 21
          }
        }
        string_val: "global_step"
        string_val: "linear/bathroom/weight"
        string_val: "linear/bathroom/weight/bathroom/weight/part_0/Adam"
        string_val: "linear/bathroom/weight/bathroom/weight/part_0/Adam_1"
        string_val: "linear/bedroom/weight"
        string_val: "linear/bedroom/weight//bedroom/weight/part_0/Adam"
        string_val: "linear/bedroom/weight//bedroom/weight/part_0/Adam_1"
        string_val: "linear/bias_weight"
        string_val: "linear/bias_weight/ear/bias_weight/part_0/Adam"
        string_val: "linear/bias_weight/ear/bias_weight/part_0/Adam_1"
        string_val: "linear/property_type/weights"
        string_val: "linear/property_type/weights/ty_type/weights/part_0/Adam"
        string_val: "linear/property_type/weights/ty_type/weights/part_0/Adam_1"
        string_val: "linear/regression_head/train_op/beta1_power"
        string_val: "linear/regression_head/train_op/beta2_power"
        string_val: "linear/size_bucketized/weights"
        string_val: "linear/size_bucketized/weights/ketized/weights/part_0/Adam"
        string_val: "linear/size_bucketized/weights/ketized/weights/part_0/Adam_1"
        string_val: "linear/zipcode/weights"
        string_val: "linear/zipcode/weights/zipcode/weights/part_0/Adam"
        string_val: "linear/zipcode/weights/zipcode/weights/part_0/Adam_1"
      }
    }
  }
}
node {
  name: "save/RestoreV2/shape_and_slices"
  op: "Const"
  device: "/device:CPU:0"
  attr {
    key: "_output_shapes"
    value {
      list {
        shape {
          dim {
            size: 21
          }
        }
      }
    }
  }
  attr {
    key: "dtype"
    value {
      type: DT_STRING
    }
  }
  attr {
    key: "value"
    value {
      tensor {
        dtype: DT_STRING
        tensor_shape {
          dim {
            size: 21
          }
        }
        string_val: ""
        string_val: "1 1 0,1:0,1"
        string_val: "1 1 0,1:0,1"
        string_val: "1 1 0,1:0,1"
        string_val: "1 1 0,1:0,1"
        string_val: "1 1 0,1:0,1"
        string_val: "1 1 0,1:0,1"
        string_val: "1 0,1"
        string_val: "1 0,1"
        string_val: "1 0,1"
        string_val: "50 1 0,50:0,1"
        string_val: "50 1 0,50:0,1"
        string_val: "50 1 0,50:0,1"
        string_val: ""
        string_val: ""
        string_val: "31 1 0,31:0,1"
        string_val: "31 1 0,31:0,1"
        string_val: "31 1 0,31:0,1"
        string_val: "1000 1 0,1000:0,1"
        string_val: "1000 1 0,1000:0,1"
        string_val: "1000 1 0,1000:0,1"
      }
    }
  }
}
node {
  name: "save/RestoreV2"
  op: "RestoreV2"
  input: "save/Const"
  input: "save/RestoreV2/tensor_names"
  input: "save/RestoreV2/shape_and_slices"
  device: "/device:CPU:0"
  attr {
    key: "_output_shapes"
    value {
      list {
        shape {
          unknown_rank: true
        }
        shape {
          dim {
            size: 1
          }
          dim {
            size: 1
          }
        }
        shape {
          dim {
            size: 1
          }
          dim {
            size: 1
          }
        }
        shape {
          dim {
            size: 1
          }
          dim {
            size: 1
          }
        }
        shape {
          dim {
            size: 1
          }
          dim {
            size: 1
          }
        }
        shape {
          dim {
            size: 1
          }
          dim {
            size: 1
          }
        }
        shape {
          dim {
            size: 1
          }
          dim {
            size: 1
          }
        }
        shape {
          dim {
            size: 1
          }
        }
        shape {
          dim {
            size: 1
          }
        }
        shape {
          dim {
            size: 1
          }
        }
        shape {
          dim {
            size: 50
          }
          dim {
            size: 1
          }
        }
        shape {
          dim {
            size: 50
          }
          dim {
            size: 1
          }
        }
        shape {
          dim {
            size: 50
          }
          dim {
            size: 1
          }
        }
        shape {
          unknown_rank: true
        }
        shape {
          unknown_rank: true
        }
        shape {
          dim {
            size: 31
          }
          dim {
            size: 1
          }
        }
        shape {
          dim {
            size: 31
          }
          dim {
            size: 1
          }
        }
        shape {
          dim {
            size: 31
          }
          dim {
            size: 1
          }
        }
        shape {
          dim {
            size: 1000
          }
          dim {
            size: 1
          }
        }
        shape {
          dim {
            size: 1000
          }
          dim {
            size: 1
          }
        }
        shape {
          dim {
            size: 1000
          }
          dim {
            size: 1
          }
        }
      }
    }
  }
  attr {
    key: "dtypes"
    value {
      list {
        type: DT_INT64
        type: DT_FLOAT
        type: DT_FLOAT
        type: DT_FLOAT
        type: DT_FLOAT
        type: DT_FLOAT
        type: DT_FLOAT
        type: DT_FLOAT
        type: DT_FLOAT
        type: DT_FLOAT
        type: DT_FLOAT
        type: DT_FLOAT
        type: DT_FLOAT
        type: DT_FLOAT
        type: DT_FLOAT
        type: DT_FLOAT
        type: DT_FLOAT
        type: DT_FLOAT
        type: DT_FLOAT
        type: DT_FLOAT
        type: DT_FLOAT
      }
    }
  }
}
node {
  name: "save/Assign"
  op: "Assign"
  input: "global_step"
  input: "save/RestoreV2"
  attr {
    key: "T"
    value {
      type: DT_INT64
    }
  }
  attr {
    key: "_class"
    value {
      list {
        s: "loc:@global_step"
      }
    }
  }
  attr {
    key: "_output_shapes"
    value {
      list {
        shape {
        }
      }
    }
  }
  attr {
    key: "use_locking"
    value {
      b: true
    }
  }
  attr {
    key: "validate_shape"
    value {
      b: true
    }
  }
}
node {
  name: "save/Assign_1"
  op: "Assign"
  input: "linear/bathroom/weight/part_0"
  input: "save/RestoreV2:1"
  attr {
    key: "T"
    value {
      type: DT_FLOAT
    }
  }
  attr {
    key: "_class"
    value {
      list {
        s: "loc:@linear/bathroom/weight/part_0"
      }
    }
  }
  attr {
    key: "_output_shapes"
    value {
      list {
        shape {
          dim {
            size: 1
          }
          dim {
            size: 1
          }
        }
      }
    }
  }
  attr {
    key: "use_locking"
    value {
      b: true
    }
  }
  attr {
    key: "validate_shape"
    value {
      b: true
    }
  }
}
node {
  name: "save/Assign_2"
  op: "Assign"
  input: "linear/regression_head/linear/bathroom/weight/part_0/Adam"
  input: "save/RestoreV2:2"
  attr {
    key: "T"
    value {
      type: DT_FLOAT
    }
  }
  attr {
    key: "_class"
    value {
      list {
        s: "loc:@linear/bathroom/weight/part_0"
      }
    }
  }
  attr {
    key: "_output_shapes"
    value {
      list {
        shape {
          dim {
            size: 1
          }
          dim {
            size: 1
          }
        }
      }
    }
  }
  attr {
    key: "use_locking"
    value {
      b: true
    }
  }
  attr {
    key: "validate_shape"
    value {
      b: true
    }
  }
}
node {
  name: "save/Assign_3"
  op: "Assign"
  input: "linear/regression_head/linear/bathroom/weight/part_0/Adam_1"
  input: "save/RestoreV2:3"
  attr {
    key: "T"
    value {
      type: DT_FLOAT
    }
  }
  attr {
    key: "_class"
    value {
      list {
        s: "loc:@linear/bathroom/weight/part_0"
      }
    }
  }
  attr {
    key: "_output_shapes"
    value {
      list {
        shape {
          dim {
            size: 1
          }
          dim {
            size: 1
          }
        }
      }
    }
  }
  attr {
    key: "use_locking"
    value {
      b: true
    }
  }
  attr {
    key: "validate_shape"
    value {
      b: true
    }
  }
}
node {
  name: "save/Assign_4"
  op: "Assign"
  input: "linear/bedroom/weight/part_0"
  input: "save/RestoreV2:4"
  attr {
    key: "T"
    value {
      type: DT_FLOAT
    }
  }
  attr {
    key: "_class"
    value {
      list {
        s: "loc:@linear/bedroom/weight/part_0"
      }
    }
  }
  attr {
    key: "_output_shapes"
    value {
      list {
        shape {
          dim {
            size: 1
          }
          dim {
            size: 1
          }
        }
      }
    }
  }
  attr {
    key: "use_locking"
    value {
      b: true
    }
  }
  attr {
    key: "validate_shape"
    value {
      b: true
    }
  }
}
node {
  name: "save/Assign_5"
  op: "Assign"
  input: "linear/regression_head/linear/bedroom/weight/part_0/Adam"
  input: "save/RestoreV2:5"
  attr {
    key: "T"
    value {
      type: DT_FLOAT
    }
  }
  attr {
    key: "_class"
    value {
      list {
        s: "loc:@linear/bedroom/weight/part_0"
      }
    }
  }
  attr {
    key: "_output_shapes"
    value {
      list {
        shape {
          dim {
            size: 1
          }
          dim {
            size: 1
          }
        }
      }
    }
  }
  attr {
    key: "use_locking"
    value {
      b: true
    }
  }
  attr {
    key: "validate_shape"
    value {
      b: true
    }
  }
}
node {
  name: "save/Assign_6"
  op: "Assign"
  input: "linear/regression_head/linear/bedroom/weight/part_0/Adam_1"
  input: "save/RestoreV2:6"
  attr {
    key: "T"
    value {
      type: DT_FLOAT
    }
  }
  attr {
    key: "_class"
    value {
      list {
        s: "loc:@linear/bedroom/weight/part_0"
      }
    }
  }
  attr {
    key: "_output_shapes"
    value {
      list {
        shape {
          dim {
            size: 1
          }
          dim {
            size: 1
          }
        }
      }
    }
  }
  attr {
    key: "use_locking"
    value {
      b: true
    }
  }
  attr {
    key: "validate_shape"
    value {
      b: true
    }
  }
}
node {
  name: "save/Assign_7"
  op: "Assign"
  input: "linear/bias_weight/part_0"
  input: "save/RestoreV2:7"
  attr {
    key: "T"
    value {
      type: DT_FLOAT
    }
  }
  attr {
    key: "_class"
    value {
      list {
        s: "loc:@linear/bias_weight/part_0"
      }
    }
  }
  attr {
    key: "_output_shapes"
    value {
      list {
        shape {
          dim {
            size: 1
          }
        }
      }
    }
  }
  attr {
    key: "use_locking"
    value {
      b: true
    }
  }
  attr {
    key: "validate_shape"
    value {
      b: true
    }
  }
}
node {
  name: "save/Assign_8"
  op: "Assign"
  input: "linear/regression_head/linear/bias_weight/part_0/Adam"
  input: "save/RestoreV2:8"
  attr {
    key: "T"
    value {
      type: DT_FLOAT
    }
  }
  attr {
    key: "_class"
    value {
      list {
        s: "loc:@linear/bias_weight/part_0"
      }
    }
  }
  attr {
    key: "_output_shapes"
    value {
      list {
        shape {
          dim {
            size: 1
          }
        }
      }
    }
  }
  attr {
    key: "use_locking"
    value {
      b: true
    }
  }
  attr {
    key: "validate_shape"
    value {
      b: true
    }
  }
}
node {
  name: "save/Assign_9"
  op: "Assign"
  input: "linear/regression_head/linear/bias_weight/part_0/Adam_1"
  input: "save/RestoreV2:9"
  attr {
    key: "T"
    value {
      type: DT_FLOAT
    }
  }
  attr {
    key: "_class"
    value {
      list {
        s: "loc:@linear/bias_weight/part_0"
      }
    }
  }
  attr {
    key: "_output_shapes"
    value {
      list {
        shape {
          dim {
            size: 1
          }
        }
      }
    }
  }
  attr {
    key: "use_locking"
    value {
      b: true
    }
  }
  attr {
    key: "validate_shape"
    value {
      b: true
    }
  }
}
node {
  name: "save/Assign_10"
  op: "Assign"
  input: "linear/property_type/weights/part_0"
  input: "save/RestoreV2:10"
  attr {
    key: "T"
    value {
      type: DT_FLOAT
    }
  }
  attr {
    key: "_class"
    value {
      list {
        s: "loc:@linear/property_type/weights/part_0"
      }
    }
  }
  attr {
    key: "_output_shapes"
    value {
      list {
        shape {
          dim {
            size: 50
          }
          dim {
            size: 1
          }
        }
      }
    }
  }
  attr {
    key: "use_locking"
    value {
      b: true
    }
  }
  attr {
    key: "validate_shape"
    value {
      b: true
    }
  }
}
node {
  name: "save/Assign_11"
  op: "Assign"
  input: "linear/regression_head/linear/property_type/weights/part_0/Adam"
  input: "save/RestoreV2:11"
  attr {
    key: "T"
    value {
      type: DT_FLOAT
    }
  }
  attr {
    key: "_class"
    value {
      list {
        s: "loc:@linear/property_type/weights/part_0"
      }
    }
  }
  attr {
    key: "_output_shapes"
    value {
      list {
        shape {
          dim {
            size: 50
          }
          dim {
            size: 1
          }
        }
      }
    }
  }
  attr {
    key: "use_locking"
    value {
      b: true
    }
  }
  attr {
    key: "validate_shape"
    value {
      b: true
    }
  }
}
node {
  name: "save/Assign_12"
  op: "Assign"
  input: "linear/regression_head/linear/property_type/weights/part_0/Adam_1"
  input: "save/RestoreV2:12"
  attr {
    key: "T"
    value {
      type: DT_FLOAT
    }
  }
  attr {
    key: "_class"
    value {
      list {
        s: "loc:@linear/property_type/weights/part_0"
      }
    }
  }
  attr {
    key: "_output_shapes"
    value {
      list {
        shape {
          dim {
            size: 50
          }
          dim {
            size: 1
          }
        }
      }
    }
  }
  attr {
    key: "use_locking"
    value {
      b: true
    }
  }
  attr {
    key: "validate_shape"
    value {
      b: true
    }
  }
}
node {
  name: "save/Assign_13"
  op: "Assign"
  input: "linear/regression_head/train_op/beta1_power"
  input: "save/RestoreV2:13"
  attr {
    key: "T"
    value {
      type: DT_FLOAT
    }
  }
  attr {
    key: "_class"
    value {
      list {
        s: "loc:@linear/bathroom/weight/part_0"
      }
    }
  }
  attr {
    key: "_output_shapes"
    value {
      list {
        shape {
        }
      }
    }
  }
  attr {
    key: "use_locking"
    value {
      b: true
    }
  }
  attr {
    key: "validate_shape"
    value {
      b: true
    }
  }
}
node {
  name: "save/Assign_14"
  op: "Assign"
  input: "linear/regression_head/train_op/beta2_power"
  input: "save/RestoreV2:14"
  attr {
    key: "T"
    value {
      type: DT_FLOAT
    }
  }
  attr {
    key: "_class"
    value {
      list {
        s: "loc:@linear/bathroom/weight/part_0"
      }
    }
  }
  attr {
    key: "_output_shapes"
    value {
      list {
        shape {
        }
      }
    }
  }
  attr {
    key: "use_locking"
    value {
      b: true
    }
  }
  attr {
    key: "validate_shape"
    value {
      b: true
    }
  }
}
node {
  name: "save/Assign_15"
  op: "Assign"
  input: "linear/size_bucketized/weights/part_0"
  input: "save/RestoreV2:15"
  attr {
    key: "T"
    value {
      type: DT_FLOAT
    }
  }
  attr {
    key: "_class"
    value {
      list {
        s: "loc:@linear/size_bucketized/weights/part_0"
      }
    }
  }
  attr {
    key: "_output_shapes"
    value {
      list {
        shape {
          dim {
            size: 31
          }
          dim {
            size: 1
          }
        }
      }
    }
  }
  attr {
    key: "use_locking"
    value {
      b: true
    }
  }
  attr {
    key: "validate_shape"
    value {
      b: true
    }
  }
}
node {
  name: "save/Assign_16"
  op: "Assign"
  input: "linear/regression_head/linear/size_bucketized/weights/part_0/Adam"
  input: "save/RestoreV2:16"
  attr {
    key: "T"
    value {
      type: DT_FLOAT
    }
  }
  attr {
    key: "_class"
    value {
      list {
        s: "loc:@linear/size_bucketized/weights/part_0"
      }
    }
  }
  attr {
    key: "_output_shapes"
    value {
      list {
        shape {
          dim {
            size: 31
          }
          dim {
            size: 1
          }
        }
      }
    }
  }
  attr {
    key: "use_locking"
    value {
      b: true
    }
  }
  attr {
    key: "validate_shape"
    value {
      b: true
    }
  }
}
node {
  name: "save/Assign_17"
  op: "Assign"
  input: "linear/regression_head/linear/size_bucketized/weights/part_0/Adam_1"
  input: "save/RestoreV2:17"
  attr {
    key: "T"
    value {
      type: DT_FLOAT
    }
  }
  attr {
    key: "_class"
    value {
      list {
        s: "loc:@linear/size_bucketized/weights/part_0"
      }
    }
  }
  attr {
    key: "_output_shapes"
    value {
      list {
        shape {
          dim {
            size: 31
          }
          dim {
            size: 1
          }
        }
      }
    }
  }
  attr {
    key: "use_locking"
    value {
      b: true
    }
  }
  attr {
    key: "validate_shape"
    value {
      b: true
    }
  }
}
node {
  name: "save/Assign_18"
  op: "Assign"
  input: "linear/zipcode/weights/part_0"
  input: "save/RestoreV2:18"
  attr {
    key: "T"
    value {
      type: DT_FLOAT
    }
  }
  attr {
    key: "_class"
    value {
      list {
        s: "loc:@linear/zipcode/weights/part_0"
      }
    }
  }
  attr {
    key: "_output_shapes"
    value {
      list {
        shape {
          dim {
            size: 1000
          }
          dim {
            size: 1
          }
        }
      }
    }
  }
  attr {
    key: "use_locking"
    value {
      b: true
    }
  }
  attr {
    key: "validate_shape"
    value {
      b: true
    }
  }
}
node {
  name: "save/Assign_19"
  op: "Assign"
  input: "linear/regression_head/linear/zipcode/weights/part_0/Adam"
  input: "save/RestoreV2:19"
  attr {
    key: "T"
    value {
      type: DT_FLOAT
    }
  }
  attr {
    key: "_class"
    value {
      list {
        s: "loc:@linear/zipcode/weights/part_0"
      }
    }
  }
  attr {
    key: "_output_shapes"
    value {
      list {
        shape {
          dim {
            size: 1000
          }
          dim {
            size: 1
          }
        }
      }
    }
  }
  attr {
    key: "use_locking"
    value {
      b: true
    }
  }
  attr {
    key: "validate_shape"
    value {
      b: true
    }
  }
}
node {
  name: "save/Assign_20"
  op: "Assign"
  input: "linear/regression_head/linear/zipcode/weights/part_0/Adam_1"
  input: "save/RestoreV2:20"
  attr {
    key: "T"
    value {
      type: DT_FLOAT
    }
  }
  attr {
    key: "_class"
    value {
      list {
        s: "loc:@linear/zipcode/weights/part_0"
      }
    }
  }
  attr {
    key: "_output_shapes"
    value {
      list {
        shape {
          dim {
            size: 1000
          }
          dim {
            size: 1
          }
        }
      }
    }
  }
  attr {
    key: "use_locking"
    value {
      b: true
    }
  }
  attr {
    key: "validate_shape"
    value {
      b: true
    }
  }
}
node {
  name: "save/restore_shard"
  op: "NoOp"
  input: "^save/Assign"
  input: "^save/Assign_1"
  input: "^save/Assign_10"
  input: "^save/Assign_11"
  input: "^save/Assign_12"
  input: "^save/Assign_13"
  input: "^save/Assign_14"
  input: "^save/Assign_15"
  input: "^save/Assign_16"
  input: "^save/Assign_17"
  input: "^save/Assign_18"
  input: "^save/Assign_19"
  input: "^save/Assign_2"
  input: "^save/Assign_20"
  input: "^save/Assign_3"
  input: "^save/Assign_4"
  input: "^save/Assign_5"
  input: "^save/Assign_6"
  input: "^save/Assign_7"
  input: "^save/Assign_8"
  input: "^save/Assign_9"
}
node {
  name: "save/restore_all"
  op: "NoOp"
  input: "^save/restore_shard"
}
versions {
  producer: 27
}
